code/modelAvgAvgPool.pt (torch, 156585 bytes, 12 tensors)

weight f4 [16, 1, 3, 3]
000000 c5 00 27 3d 28 88 7a 3e ec 77 89 be 11 d7 68 be
       0.04077222 0.24466002 -0.26849306 -0.22738291
000010 b4 0b c2 bd dc 05 17 3e b0 da 2b 3d 81 1b b5 3e
       -0.094748884 0.14748329 0.041956604 0.35372546
000020 0d 44 4d 3c 15 4c a3 be c2 fe 02 bf 93 c6 f5 be
       0.012528432 -0.31893983 -0.5116998 -0.48003063
000030 f6 b4 2b bf fb d8 0d bf eb 5e ef be 69 b5 32 3e
       -0.67073 -0.5540921 -0.46752104 0.17452015
000040 98 a2 62 3e 4a b7 89 3e 8d 59 85 be da 48 38 be
       0.22132337 0.2689765 -0.26044884 -0.1799654
000050 da 48 b0 3d a6 55 76 3e dd fa d6 bd fd 05 5a 3e
       0.08607645 0.2405611 -0.10497067 0.21291347
000060 54 80 b7 bd 2a 5b aa ba e7 c1 87 3e c3 51 c0 be
       -0.089600235 -0.001299714 0.26515123 -0.3756238
000070 25 93 92 be 9a 9e 15 be bb 79 61 be 8d f9 30 3e
       -0.28627887 -0.14611283 -0.22019093 0.17282696
000080 62 6b 8f be 58 53 5b be 4b 71 91 be 47 24 af be
       -0.28011614 -0.21418512 -0.28406748 -0.34207365
000090 c7 53 35 be 69 21 b3 3e 52 bb 53 3e a5 8a 51 3e
       -0.1770774 0.34986427 0.20676926 0.20463045
0000a0 0e 73 4e 3d 74 80 0d be b0 74 b8 3d 8d 30 98 be
       0.050402693 -0.13818532 0.090066314 -0.2972454
0000b0 80 5c 5d be ea 64 07 be 52 4a 68 3e 7a 33 58 3e
       -0.21617317 -0.1322209 0.22684601 0.21113387
0000c0 69 2e e3 bd 44 37 9a 3c 07 66 66 3e 70 e7 a7 3e
       -0.110928364 0.01882518 0.22499858 0.3279376
0000d0 09 f3 12 3e 81 07 76 3d 01 47 af 3e 7b ef 25 be
       0.14350523 0.06006575 0.3423386 -0.16204636
0000e0 14 1d 12 3e f9 34 70 be b0 9b 4d be ef 69 0b be
       0.14268905 -0.23457707 -0.20078921 -0.13614629
0000f0 0d f8 8c 3e 0a 7d 80 3e 9f 22 21 be b0 ef d0 3d
       0.27532998 0.25095397 -0.15735863 0.10201967
000100 70 6e 3c 3e e5 6d 54 bd 77 a6 86 3b 67 60 8d 3d
       0.18401504 -0.051862616 0.0041091996 0.06903153
000110 0c e7 57 3e 18 b5 a2 3e 1f 16 95 be 8a 9e 17 be
       0.21084231 0.3177879 -0.2911844 -0.14806572
000120 ee 61 bb 3d 6f 41 86 3e 60 b5 98 3e b2 d9 91 3e
       0.09149538 0.26221797 0.29825878 0.284864
000130 0e fc 16 3d bf 05 ac be 7b dc ce bb ef fc 81 be
       0.03686147 -0.33598134 -0.0063129044 -0.25388286
000140 c8 a9 b2 be e5 7a 92 3e 6e 11 7c 3e 67 ec aa be
       -0.34895158 0.28609386 0.24616024 -0.33383486
000150 1c d0 58 3d 71 d2 7f bd ca 09 73 bd 3d b0 23 be
       0.052932844 -0.062456552 -0.059335507 -0.15985198
000160 da d7 fa 3d ee 6c 4d be 29 73 8f 3d 8b 86 e9 3d
       0.12248202 -0.20061085 0.07004387 0.11402615
000170 be 12 37 3e 71 24 8d 3d 46 c2 c0 be 40 fd 89 be
       0.17878243 0.06891716 -0.3764822 -0.26951027
000180 38 2d d9 3d 82 31 32 3c 3d 37 9f be 6f 7e 9e 3d
       0.10604328 0.010876061 -0.3109683 0.07738959
000190 f4 a8 de 3e 0a 10 b3 3e ec c9 e4 be 10 97 c9 be
       0.43488276 0.34973174 -0.44685304 -0.39373064
0001a0 96 1f 27 bf 2c a5 e6 be c2 a5 36 bf 64 38 38 bf
       -0.6528257 -0.4504789 -0.71346676 -0.71961045
0001b0 3b 7e cd bb e6 c7 7f 3d 17 07 f9 bd 97 08 55 3e
       -0.0062711514 0.062446497 -0.121595554 0.20804058
0001c0 26 8d 43 be e6 b8 a0 3e 47 f8 73 3e 3b 52 8a be
       -0.19096813 0.31391066 0.23825179 -0.27015862
0001d0 94 68 92 bd 08 81 6d 3e d9 e4 28 be 07 2a 38 bd
       -0.07148853 0.23193753 -0.16493548 -0.044961955
0001e0 47 42 9a 3e a6 8e 2e be b5 e9 99 be 43 56 be 3e
       0.3012869 -0.17046604 -0.30061117 0.37175187
0001f0 13 36 15 bf 90 56 b0 be 17 27 c7 be 30 a2 91 bd
       -0.58285636 -0.34441042 -0.3889701 -0.07111013
000200 7c 6c 23 3e 23 0f 14 bf 0e 85 99 bc 6a fa 49 3e
       0.15959352 -0.57835597 -0.018740203 0.19724432
000210 0d eb de be 44 91 33 3d 8f 8f 92 3e 38 0e d7 3b
       -0.43538705 0.043839708 0.28625152 0.0065629743
000220 00 6f 39 3d 99 3c fd 3b 3a 32 cb 3d 27 b3 73 3e
       0.045271873 0.007728171 0.09921689 0.2379881
000230 31 62 af 3e eb c8 77 3e 93 d8 ae 3e 09 d3 24 3b
       0.34254602 0.24197738 0.34149608 0.00251502

bias f4 [16]
000000 50 9e 3f be a9 e8 e8 3d f6 58 5e 3e 20 f6 1d 3e
       -0.18712735 0.113725014 0.21713623 0.1542592
000010 9e 34 a5 bd 53 7a ac be 35 6f ef bd c6 05 8b be
       -0.080666766 -0.33687076 -0.11691133 -0.27152842
000020 a7 16 c3 bb 20 31 70 3e bf 7e 2c 3e 47 93 33 3e
       -0.005953628 0.2345624 0.16845225 0.1753665
000030 f9 cb 7d 3e e5 39 71 3d 6a 7b e9 3d 8d 3f ef bd
       0.2478484 0.058893103 0.114004925 -0.11682043

weight f4 [32, 16, 3, 3]
000000 4f 23 11 be 7c 57 34 be ed c5 67 be ec 4d 40 be
       -0.14173625 -0.17611498 -0.22634096 -0.18779725
000010 bd 47 2c be 6b a9 19 be 1b 6c 0b be da f7 c8 bd
       -0.16824241 -0.15006034 -0.13615458 -0.09812899
000020 7e 24 54 be ef 8c 05 3e 76 76 93 3e 44 f5 26 3e
       -0.20717046 0.13042043 0.28801316 0.16304499
000030 b4 51 81 3e 61 f4 9e 3e ff f8 38 3e 50 e4 c9 be
       0.25257647 0.3104582 0.18063734 -0.39432
000040 a5 7d bb be 97 84 c9 be f3 e0 71 3d 24 ff 91 bd
       -0.36619297 -0.3935897 0.05905242 -0.07128742
000050 39 df d7 39 5c b6 a9 bc f1 f8 79 3d dd dd a2 3c
       0.0004117431 -0.020716839 0.061028425 0.019881183
000060 75 c9 04 3d b2 f8 de 3c b4 21 e1 bc 62 8c c6 3d
       0.032418687 0.027218197 -0.027481891 0.09694745
000070 d6 83 8a 3d 27 3e 35 3e 80 1a 3b 3e e0 14 4b 3e
       0.06763427 0.1769949 0.18271828 0.19832182
000080 e6 91 a5 3d c1 91 ea 3d f0 81 a1 3d a3 a9 c0 3d
       0.080844685 0.114535816 0.07886112 0.09407356
000090 3f 71 89 bd c0 e7 38 bb 68 56 d1 bd b3 56 44 bd
       -0.06711053 -0.0028214306 -0.10221559 -0.047934245
0000a0 82 a3 88 bd 23 a7 c9 bc 0a 54 28 be af 5c 41 be
       -0.06671812 -0.02461583 -0.16438308 -0.18883012
0000b0 fe cc 42 be a0 77 8b 3e 64 19 1c 3e 6d b9 82 3e
       -0.19023511 0.27239704 0.15244061 0.25532094
0000c0 57 50 4f 3e 89 0d 18 3e 3d 8a 15 3e c1 cc 28 3e
       0.20245491 0.14848913 0.14603515 0.16484357
0000d0 57 1d 26 3e 36 96 0e 3e 59 20 8f be 83 d1 97 be
       0.1622213 0.13924488 -0.27954367 -0.29652032
0000e0 84 5d cd be 7d a6 a0 be b5 45 7b be 53 d8 d2 be
       -0.4011041 -0.3137702 -0.2453831 -0.41180667
0000f0 b6 5e 9c be c4 3f 81 be 13 13 a9 be f7 8f bc 3d
       -0.3054101 -0.25243962 -0.33022365 0.092071466
000100 df 05 26 bd 3c ab 38 3d dc c7 14 bd 06 7c a0 bd
       -0.040532943 0.045085177 -0.036323413 -0.078361556
000110 5d 4d e2 bd 58 7e 27 bd 60 13 ce bd c8 ad 6c bd
       -0.11049912 -0.040891975 -0.10062289 -0.05778292
000120 4d 66 8e 3d 75 34 09 3e b4 5e ae 3d 0d 91 f0 bb
       0.06953106 0.13398917 0.08514157 -0.00734151
000130 23 ad 8f 3d 54 b3 39 bd 35 c0 1e bd fb 9c 98 bb
       0.07015445 -0.045337036 -0.03875752 -0.0046573854
000140 05 0d c9 bc 0e cf 62 3d 83 5f e4 bc 5a f9 d4 bb
       -0.024542341 0.055373244 -0.027877575 -0.0064994516
000150 02 10 30 3d 93 f9 9d bd 73 47 68 3d c2 cc 9e bd
       0.042984016 -0.07713618 0.056708764 -0.07753898
000160 b4 d3 99 bb 8a bb da bc 65 4b 3f bd cf a2 b7 3c
       -0.0046944264 -0.026700754 -0.04670276 0.0224165
000170 a3 1a 9c 3d e4 aa 89 bc 98 75 d4 bc 50 d8 b2 bb
       0.07622268 -0.01680512 -0.02593498 -0.0054579154
000180 1c 5b 9e bd bb 45 60 3d 87 36 a7 bc e3 f5 f7 be
       -0.077322215 0.054754 -0.020411743 -0.48429784
000190 aa 2d e3 be 78 c4 c1 be 13 b6 73 3e 54 1a 96 3e
       -0.44370776 -0.37845206 0.23799925 0.29316962
0001a0 e7 cb 91 3e 61 8c 0a 3e d3 95 2f 3e 6a 54 69 3e
       0.28475878 0.13530113 0.17146997 0.22786108
0001b0 88 61 89 3d b9 d4 ca 3c af be 32 bd cd 50 15 bd
       0.06708056 0.024759637 -0.04363888 -0.03645401
0001c0 2b 98 95 bd b4 d0 8d 3c e0 71 50 bd 51 af 9a bd
       -0.07304414 0.017311431 -0.05088985 -0.0755297
0001d0 a2 07 87 3d ca da b3 be de f1 19 3e ad e5 29 3e
       0.06593253 -0.3512786 0.15033671 0.1659152
0001e0 36 a7 80 be de a5 19 3e b6 53 c2 3d e3 f1 57 be
       -0.25127572 0.1500468 0.09488623 -0.21088366
0001f0 cb 8c 41 3e 55 56 55 3e f5 e1 0a 3e 42 03 78 3e
       0.18901365 0.20833714 0.13562758 0.24219993
000200 0f c3 5b be c8 a1 30 3e ea 51 49 3e 73 0c 27 be
       -0.21461128 0.17249215 0.19660154 -0.16313343
000210 6d 7d 1a 3e fa a6 3d 3e a9 a1 8b be 52 af 47 3c
       0.15086909 0.18520728 -0.27271774 0.012187796
000220 73 a1 dd 3d 5d fe 81 bc 7c 97 ae 3d 3e 9d 08 3c
       0.108218096 -0.01586836 0.08524987 0.008338271
000230 42 dd 0c bc 25 db 80 3d 9c 97 09 bc dd 15 46 3d
       -0.008597674 0.062917985 -0.008397963 0.048360694
000240 fe b8 01 3d 76 11 79 be 49 8d 6c be 6e 7d 35 3d
       0.031670563 -0.24323067 -0.23100771 0.044309072
000250 d3 b1 23 be 52 eb 64 be 1a 59 c2 bd 03 2c 57 be
       -0.15985803 -0.22355393 -0.09489651 -0.21012883
000260 67 e7 20 be 56 87 cf 3c 21 09 92 3d ee 2f 0c 3d
       -0.15713273 0.025333088 0.071306475 0.034225397
000270 33 4f b5 3e 4d ff b5 3e 43 60 b3 3e 73 4b 6e be
       0.35411987 0.35546342 0.3503438 -0.23270969
000280 5e 12 6c be 6f aa 94 be ab 06 b5 bd 7a c2 72 bc
       -0.23053882 -0.2903628 -0.088391624 -0.014816875
000290 74 ab 86 3c 97 09 89 3d 42 d2 32 3d 60 eb 67 bc
       0.016439177 0.06691282 0.04365755 -0.014155239
0002a0 f2 85 44 3c ce 47 84 bd 3c ed e6 bd 94 9f a2 3d
       0.011994826 -0.06459008 -0.112757176 0.07940593
0002b0 66 77 6d 3e 8b b5 47 3e 19 2d d0 3d 94 14 42 3e
       0.23190078 0.19502847 0.10164852 0.18953162
0002c0 d3 c5 5b 3e 82 f1 74 3e e0 87 69 3e 09 b5 5b 3e
       0.21462183 0.23920253 0.22805738 0.21455778
0002d0 98 a2 aa 3c b4 a7 fd 3c 1d d4 83 3d 6d 3d 59 3d
       0.020829484 0.030963756 0.06436942 0.053037096
0002e0 dd 9e 9e bd 27 ad dd 3c 0a 94 8c 3c 3e f1 fc ba
       -0.077451445 0.027060105 0.017160434 -0.001929797
0002f0 ee 12 12 be 82 e0 d5 ba 47 7f 96 bd ea 54 0b 3c
       -0.14265034 -0.0016317519 -0.07348495 0.008504132
000300 40 ed f8 bc 7d ce cd 3a 75 69 97 bc 7a 01 3a 3c
       -0.030386567 0.0015701797 -0.018482903 0.011352891
000310 fc 87 7d bd 51 08 d7 3b eb 7d 18 be 88 68 ac 3d
       -0.061897263 0.0065622707 -0.14891784 0.08418375
000320 32 38 ce bd be 70 27 be 1d ed 64 bd 0f 76 ba bd
       -0.10069312 -0.16351601 -0.05589019 -0.09104549
000330 88 cd a8 bd 27 ef 80 3d 59 9c 01 be a2 eb a8 bd
       -0.08242327 0.06295615 -0.12657298 -0.082480684
000340 8c 5a 4f bd 13 87 d3 bc c1 92 9c bd 17 db 3f 3d
       -0.05062346 -0.025821244 -0.076451786 0.0468398
000350 e9 17 c0 bd 0d 49 42 bd 0b bf af bd 58 ed 91 bd
       -0.093795605 -0.047432948 -0.085813604 -0.07125348
000360 d2 e3 18 3d 77 be 84 3d 54 08 1e 3d 3f 73 92 3d
       0.03732664 0.06481641 0.03858216 0.07150888
000370 04 28 c8 3d 06 2f 24 bc 49 56 2d 3b 94 b6 64 3d
       0.097732574 -0.010020977 0.0026449135 0.055838183
000380 b2 40 1a bc b3 a7 8b 3d 5a 4c 14 3d 2b 1b f9 3c
       -0.009414839 0.068190955 0.036205627 0.030408463
000390 a4 65 a9 bc f9 48 5f 3d 39 c3 23 3c 0b 25 f3 bc
       -0.020678349 0.05451295 0.009995275 -0.02968075
0003a0 87 5e 55 bd 4e 7f 87 bd f1 2a 81 bd 54 f8 8d 3d
       -0.0520921 -0.06616078 -0.063070185 0.069321305
0003b0 47 a7 82 3d 30 7d aa 3c 24 db bc bb 7d 5f c3 3d
       0.06379562 0.020811647 -0.0057634283 0.09539697
0003c0 d7 92 85 3d f0 2b fb 3c ec cb d5 bc 43 60 a5 bd
       0.06522148 0.0306606 -0.026098214 -0.08075001
0003d0 a1 fb 5d be b1 73 c1 be 19 e6 1d 3f 8a b0 04 3f
       -0.2167802 -0.37783578 0.61679226 0.5183188
0003e0 1d 46 d0 3e df 71 8e 3e ee 47 c0 3d 44 14 de 3d
       0.40678492 0.27821252 0.093887195 0.10843709
0003f0 eb 03 50 3d 49 22 10 bc a8 18 b5 bd 21 49 ed bc
       0.050784986 -0.008797237 -0.088425934 -0.028965535

bias f4 [32]
000000 a1 21 b8 bc c2 d3 3a 3d 60 5e 76 3d b1 16 02 bd
       -0.022476973 0.045612104 0.060148597 -0.03175992
000010 86 e9 94 3d 4b b3 3e 3d 0d 96 6c 3d af f3 9e 3c
       0.072711036 0.046557706 0.057760287 0.019403307
000020 14 05 a4 ba 81 6c d5 3d ba 6d cb 3d 73 62 18 3d
       -0.001251372 0.10421086 0.09933038 0.037203263
000030 68 c8 c4 3d c4 de 9c 3b dd 74 c8 3d 61 bf 7f 3c
       0.09608537 0.004787298 0.09787915 0.015609593
000040 7b d1 3e bd bd 3d 8c 3d da 57 9f 3d d1 74 84 3d
       -0.046586495 0.06847713 0.07780428 0.064675935
000050 e6 b8 d2 3d 73 f6 9e 3c d8 ea a0 3d 5b 10 02 3e
       0.10289173 0.019404626 0.07857293 0.12701552
000060 e1 0a bf 3c 34 35 52 3b 1c 07 48 3d b4 f2 21 3c
       0.023320617 0.0032075169 0.048834905 0.009884525
000070 16 14 02 bd 4f 06 7c 3d 99 8f 8d 3d 67 30 10 bd
       -0.031757437 0.061529454 0.06912155 -0.03520241

weight f4 [64, 32, 3, 3]
000000 45 8d ae 3d 23 e0 0b 3d ed 0a 51 3d e7 da a9 bb
       0.08523039 0.0341493 0.05103581 -0.005183566
000010 6e 06 25 bd d4 19 cb 3a 45 b0 cf 3c fe 8f 4a bb
       -0.040289335 0.0015495368 0.025352607 -0.003090858
000020 2c ba a8 3d bf 64 8a 3d 7c 5c 77 3d e0 f1 26 3d
       0.082386345 0.06757497 0.060390934 0.040758014
000030 23 d1 4d 3e 4f 0e f1 3d 11 b2 28 3e 7b 84 1e 3e
       0.2009931 0.11770307 0.16474177 0.15480225
000040 d0 99 f1 3d da 28 00 3e 24 ce 32 3d f5 f7 4e bb
       0.117969155 0.12515584 0.043653622 -0.00315809
000050 63 1e 02 3c 9b 44 a8 3d 8c 17 8b 3d fd 44 3c 3b
       0.007941815 0.082162105 0.067916006 0.0028727644
000060 af e7 24 bc a1 ba 4e 3d 65 67 2c 3d d8 f9 30 3c
       -0.010065003 0.050470952 0.042090792 0.010801755
000070 8f bc 85 bc 42 11 e2 bc 97 1c d5 3b 6f bc 61 3d
       -0.016325263 -0.02759612 0.0065036523 0.055111345
000080 42 1e cb 3c 68 b8 3b bd 47 fe 7a 3b 3d c1 93 3d
       0.024794701 -0.04583016 0.0038298534 0.07214592
000090 84 4a 1d bd ee 16 1b bd 6a 3e e3 3c d7 1e e1 3d
       -0.03840114 -0.037863664 0.027739722 0.1099221
0000a0 28 bc c7 bb 57 a1 9f bc cb 43 3c 3c f0 69 c7 3d
       -0.006095428 -0.019486113 0.0114907725 0.09737003
0000b0 7c e1 33 bc f4 88 e6 3c f0 d6 bb 3d d1 23 b6 3b
       -0.010979053 0.028141476 0.091718554 0.005558469
0000c0 b4 5e d8 3c 48 9c d8 3c 39 57 73 3d f7 ca a8 3d
       0.026412345 0.026441708 0.059409354 0.082418375
0000d0 0e 2f 98 3d b7 ee a2 3d 98 37 55 3e dc 6a a2 3e
       0.0743085 0.079556875 0.20821989 0.31722152
0000e0 be 78 bd bd 98 4a 9b 3e 2b 25 bb 3e 2c 28 10 bd
       -0.09251545 0.30330348 0.36551794 -0.03519456
0000f0 43 61 04 3e 64 96 b7 3e 21 1b f8 bd df bd d1 3b
       0.12927727 0.35856926 -0.121145494 0.006400808
000100 e1 eb 9a bc e8 d3 be bc 43 e4 63 bb 91 d1 aa 3d
       -0.018911304 -0.023294404 -0.0034773506 0.08340753
000110 38 80 b9 3d c8 e5 4a 3d 03 71 96 3d a3 12 a2 3d
       0.09057659 0.049535543 0.07345774 0.07913711
000120 7f 24 2b 3d fc 45 b1 bd 29 18 88 3b 0e 4b 36 3d
       0.041782852 -0.086559266 0.0041532707 0.04450517
000130 28 03 3b bd 41 c3 77 bc 4c 39 f2 bc 15 a7 88 bd
       -0.045657307 -0.015122236 -0.029568337 -0.06672493
000140 e4 fb bf bc 5a 62 1b bd 20 0a 7d bc 90 ba eb bc
       -0.02343554 -0.037935592 -0.0154443085 -0.028775483
000150 ee 9a a6 3d 53 66 ac 3d d1 0f bc 3b 6a 13 a5 3c
       0.08135019 0.08417954 0.00573919 0.020150859
000160 ec ad 42 3c 79 06 89 3d 66 ad f9 bc b9 4c 60 bc
       0.0118822865 0.06690688 -0.03047819 -0.013690167
000170 e0 68 fc bc e9 a3 6b 3d ec 36 c8 3a 80 a1 5d 3d
       -0.030811727 0.057529364 0.0015275157 0.054109097
000180 ce 57 16 3d 0b 42 81 3b 8d 91 63 3b 89 da 2e 3e
       0.03670483 0.0039446405 0.0034724206 0.17075552
000190 11 69 9b 3e 34 41 4b bd 6d b4 ee 3e ee 25 f4 3e
       0.30353597 -0.04962273 0.4662203 0.47685188
0001a0 79 95 95 3e 0f 36 8e 3e 1c 92 a6 3e d9 08 60 3e
       0.292156 0.27775618 0.32533348 0.21878375
0001b0 7c 76 da 3c ca 87 db 3c 2f 56 9a bc 0f 5c b6 bc
       0.026667826 0.026798148 -0.018839924 -0.022260694
0001c0 e8 ce df 3c de bb cb bb 97 05 58 bd 3c 54 0b bd
       0.02732034 -0.006217464 -0.052739706 -0.03401588
0001d0 e9 36 d8 bc 38 23 15 bd 7f 40 4b 3d 82 bc 1d 3d
       -0.02639337 -0.03641054 0.049622055 0.038509853
0001e0 90 fc 62 3d f2 ff 22 bc 0b 65 a0 3d b3 cf 13 3d
       0.055416644 -0.009948717 0.078317724 0.03608675
0001f0 51 17 95 3d 33 d3 8a 3c 60 50 1c 3d b8 8d ee bc
       0.07279838 0.01694641 0.03816259 -0.029120311
000200 38 3d 0c 3d 5b a5 99 3d 45 b5 8a 3d 33 3e b1 bc
       0.03423807 0.07502242 0.06772856 -0.021636104
000210 e1 1d 8c bc cd 56 08 3c 15 b3 17 3d ca a3 b9 3d
       -0.017104091 0.008321476 0.03703602 0.090644434
000220 96 c2 12 3e 11 cd b6 3c 43 8d fb 3d 12 3d 23 3e
       0.14332041 0.02231458 0.12282803 0.15941265
000230 85 7f d5 3c d3 ed 10 3d c8 cb 31 3e df ca 4b 3d
       0.026061783 0.035383057 0.17362893 0.04975402
000240 65 02 c2 3d 22 72 b4 3c cf b7 89 bd 6f 91 b9 3d
       0.09473113 0.022027079 -0.06724512 0.090609424
000250 95 98 a9 ba 97 65 f0 bd 03 66 dc 3d ac 49 0a 3c
       -0.001293915 -0.11738127 0.10761645 0.008440416
000260 17 58 a4 bd 79 f8 82 3e 8c f1 71 3e 3d 08 68 bc
       -0.08024614 0.25580195 0.23627299 -0.01416212
000270 d3 eb 48 3e 5f e7 80 3e 06 12 e3 3d ce 10 1a 3e
       0.1962121 0.25176522 0.11087422 0.15045473
000280 3f 27 76 3e aa 6b a3 3c 05 7c f7 bc c1 68 f9 bb
       0.24038409 0.0199488 -0.030210504 -0.0076113646
000290 85 66 85 3d 9d 39 2d 3c 04 7f 2e 3c e3 30 f2 3c
       0.06513695 0.010572818 0.0106504 0.029564327
0002a0 8f 40 91 3b 1c bf 0a 3d 44 e2 1b 3d 66 50 1b bd
       0.004432745 0.033873662 0.03805758 -0.03791847
0002b0 04 1f 9f 3d c1 63 2d bd b3 6d 42 3d 64 be cf 3c
       0.07769588 -0.04233146 0.0474679 0.02535934
0002c0 b9 c1 15 3c 88 c2 70 3d 6e 9d 16 bd dc 4e 85 3c
       0.009140425 0.05877927 -0.03677123 0.016272955
0002d0 1a 58 0c 3e 05 3e 39 3e d9 52 a2 bc ce 80 f0 3d
       0.13705483 0.18090065 -0.019814895 0.117433175
0002e0 64 8e 4b 3e c7 5f f7 bb be 9a d8 3d 01 5a cd 3d
       0.19878536 -0.0075492593 0.1057639 0.100269325
0002f0 c5 fd 0d 3d 83 05 e5 bb 19 7d 8e 3d 48 b6 e0 3c
       0.03466584 -0.0069891824 0.06957454 0.027430668
000300 94 61 80 3d 59 57 82 3c 4a 02 c5 3c e6 d2 3e 3c
       0.062686116 0.015910791 0.024048943 0.011646962
000310 06 57 db bc 11 38 8f 3b 41 0e 97 bb 00 40 fe bc
       -0.026774894 0.0043706973 -0.0046098535 -0.031036377
000320 df 7d 57 3d d2 a3 60 bc e5 ac b7 3c 7d 9a d5 3c
       0.052610274 -0.013710933 0.02242131 0.026074642
000330 bd cb 43 bd 91 46 bf 3c de 13 8f bc cc 07 55 3d
       -0.04780172 0.023349078 -0.017465528 0.05200939
000340 d8 3e 34 3e ed 7c 22 3d 0a 79 f6 3e 07 22 ea 3e
       0.17602098 0.03966992 0.4813922 0.45729086
000350 f0 c5 c7 3e 1f a1 7b 3e e9 7b a3 3e cd e0 11 3e
       0.39018202 0.24573182 0.31930473 0.14245911
000360 f1 47 d0 3d f8 1c 10 3e 8d 7a 2a 3e 74 08 15 3e
       0.10169972 0.1407355 0.16648312 0.14554006
000370 9b b3 2a 3e 05 a1 0b 3e 80 87 91 3d 48 af 5e 3d
       0.16670077 0.13635643 0.07105923 0.05436638
000380 e5 11 4b 3d a1 ca 8d bc f1 d4 68 3d 36 8d 29 3c
       0.049577612 -0.017308535 0.0568437 0.010348609
000390 ea 83 c8 3d 38 e1 9e 3d 8c ec 0c 3c d4 bd 3b bb
       0.097907856 0.07757801 0.008601319 -0.0028647082
0003a0 39 71 f2 3c 4e 6b 99 3d 52 f1 ef bc 83 cc c0 bb
       0.029595004 0.0749117 -0.029289875 -0.0058837547
0003b0 11 0f da 3c f6 a0 ba bc a0 5a b5 3b 18 7e af 3d
       0.026618512 -0.02278183 0.005534485 0.08568972
0003c0 fb be c2 bc 92 ed bf 3b 40 8b 7f 3d d4 8c 1d 3d
       -0.023772707 0.005857178 0.06238866 0.038464382
0003d0 fb ba 91 3d db b5 03 bd 7c c1 65 3d e3 e6 62 3c
       0.07115742 -0.032155853 0.056092724 0.013848993
0003e0 b9 25 77 bc 5e 53 83 bb 3d 1a 0b bd 21 f0 68 3d
       -0.015084677 -0.004007741 -0.03396057 0.05686963
0003f0 68 be 57 3c a5 c8 18 bd 40 c6 2c 3d 09 d5 bd 3d
       0.013167955 -0.037300725 0.042181253 0.09269149

bias f4 [64]
000000 f9 20 85 3d e0 3a 83 3d fa 18 b9 3c 20 3b f2 3b
       0.0650043 0.06407714 0.022594918 0.007392302
000010 b8 cf ec bb bb 58 a9 bb f1 30 74 3d 66 5e 20 3d
       -0.0072269104 -0.005168048 0.059616987 0.039152525
000020 2a d3 5f 3d 0d b6 8c 3d 04 5e ea 3d cc 43 8a 3c
       0.05464474 0.06870661 0.11443713 0.016878031
000030 05 a5 e7 3b fa 0a 49 bd a3 0d 0a 3c 78 34 77 3d
       0.0070692324 -0.049082734 0.008426103 0.060352772
000040 22 9d b3 3d 23 ef 8e 3d ac 12 5b bb a4 07 e1 3d
       0.08770205 0.069792055 -0.0033427877 0.109877855
000050 f2 37 36 bd e1 3b b1 3d 8a 7b 45 3d 56 25 3a 3d
       -0.044486947 0.08653999 0.04821352 0.045445763
000060 06 16 13 3d 24 58 94 3d 8c 20 08 3e 98 9a d4 3c
       0.035909675 0.07243374 0.13293666 0.025952622
000070 1f 6e dd 3c 8f 17 e6 bc 4c d8 82 3c a8 5e 07 3d
       0.027030049 -0.028087405 0.015972279 0.033049256
000080 55 f9 9f 3d e6 ac a3 3d 00 25 ad bc bb 31 a2 3d
       0.07811228 0.07991962 -0.021135807 0.079196416
000090 60 6d 25 bc 38 9e 57 3c c3 c9 bd 3d 4f aa ed 3c
       -0.010096878 0.013160281 0.092669986 0.029011874
0000a0 3e e7 6c bc 7f dd a0 3c e0 e2 5b bd d5 0f c5 3d
       -0.014459429 0.019636868 -0.05368316 0.0962216
0000b0 a8 f0 a7 3a 48 05 fd bc 58 a1 7e 3d 7a 4f bb 3d
       0.001281281 -0.030886307 0.06216559 0.09146018
0000c0 d0 9d 9c 3d 21 61 86 bb e9 ce 0d bd 6f f9 3c 3d
       0.07647288 -0.004100934 -0.034621153 0.046136316
0000d0 f1 de e6 3d 3d 45 f0 3b 1d 8f 82 3c f4 e3 0b 3d
       0.112729914 0.0073324726 0.015937382 0.03415294
0000e0 00 fc a7 bd 49 64 cc bc 7e 29 1a 3b ea 5d 68 3c
       -0.08202362 -0.024950163 0.0023523266 0.014182547
0000f0 e2 cd c5 3d 8d da c2 bc 52 6b 4b bd 96 bc d0 3c
       0.0965841 -0.023785854 -0.049662896 0.02548055

weight f4 [64, 32, 2, 2]
000000 ee b0 72 3d 99 72 12 3d 5f 57 af bb 9b d5 53 3b
       0.059250765 0.03575382 -0.0053509916 0.0032323364
000010 cb ec 4c 3d b3 f5 83 3c 97 ff 03 bd 74 34 55 bc
       0.05003051 0.01610837 -0.03222617 -0.013012994
000020 4e e7 7d 3d d6 83 82 3c f2 df 04 3e ed eb b6 3d
       0.061988167 0.015932005 0.12976053 0.08931718
000030 2f 14 25 bd 6e fa 89 3d 54 1d a0 3d 5c e5 42 bd
       -0.04030245 0.06737219 0.07818094 -0.047582015
000040 4d b4 4d b9 93 8f a1 3c bb 7b 5f bc 77 4e c8 3b
       -0.00019617491 0.019721782 -0.0136403395 0.0061128694
000050 a2 f7 e4 3a 8b 12 cf bd be 50 b6 bd dd ca 32 3c
       0.001746882 -0.10110959 -0.08902119 0.010912624
000060 31 a4 fa 3d be 1e 3c 3b 61 1a f0 3d 65 98 63 3d
       0.12238348 0.0028704847 0.117237814 0.055565257
000070 21 6f 1a 3d 50 41 11 bd 40 5c c6 3b 81 55 3b 3d
       0.037703637 -0.035462677 0.0060534775 0.04573584
000080 b1 6c 01 3d d7 c8 c2 bd 13 7f 08 bd e5 51 28 bd
       0.031597797 -0.095109634 -0.033324312 -0.041093726
000090 59 5a 22 3d ab db d8 3c 52 06 78 3d 83 50 2f bc
       0.039636943 0.026471933 0.060552903 -0.010700348
0000a0 3b 36 07 bd 83 8c 74 3d 3e d6 a6 3b 97 6e e1 bc
       -0.033010703 0.059704315 0.0050914576 -0.027518554
0000b0 f8 fd 24 bd e1 ca 5d bd bc d4 33 3d 1e 82 30 bd
       -0.040281266 -0.05414856 0.04390405 -0.04309284
0000c0 f8 34 fc 3c ea 28 4c bd f7 46 c9 3d 47 74 ef bb
       0.030786976 -0.049843706 0.098279886 -0.0073075625
0000d0 ba 20 b1 3d 28 20 5b bd fa b7 b3 bb 3c 65 57 3d
       0.0864882 -0.053497463 -0.005484578 0.05258678
0000e0 e1 65 03 bd 88 4d 03 3e 0d 20 c4 3d 67 f5 00 3e
       -0.03207958 0.12822545 0.09576426 0.12593614
0000f0 e1 9c 23 3d 31 e5 75 bd d1 79 f0 3c 3c 5c 30 bd
       0.039944533 -0.060033027 0.029354962 -0.04305671
000100 a6 27 d2 3d 8c b1 fc bc f3 f6 08 3d 26 96 f5 bc
       0.102614686 -0.03084638 0.033438634 -0.029978823
000110 f2 a2 9c bd aa 4d 67 3b 18 2d 93 bd d6 ea 60 3d
       -0.07648267 0.0035294094 -0.07186335 0.054911457
000120 10 ee 57 bd 19 0a 16 bb 22 7f 70 bd 69 5a c3 3d
       -0.05271727 -0.0022894202 -0.058714993 0.09538729
000130 5d 8e 3a 3d 6d 29 a7 3d 6e 72 1f 3d 83 ce 7e 3c
       0.045545924 0.08162198 0.038927488 0.015552166
000140 68 65 8a 3d c5 82 64 3d 1d ae db 3b 58 db 83 bd
       0.06757623 0.055788774 0.0067041055 -0.06438321
000150 90 ca ea 3c 4a 16 01 bc e8 b9 02 3e 94 d5 9a 3d
       0.028661042 -0.007878849 0.1276623 0.07560268
000160 8d 8a 91 3d e8 86 1a bd 15 ad 12 3e 0b 7e 4f 3d
       0.071065046 -0.037726313 0.14323838 0.050657313
000170 ce 59 ad bd e6 29 c8 bb 7b f8 93 3d 36 43 d8 3c
       -0.084643945 -0.0061085103 0.07225128 0.026399236
000180 88 a7 c9 bc fd 8f 3e bd 06 78 84 3d 83 01 f6 bc
       -0.024616018 -0.046524037 0.06468205 -0.030030018
000190 1c 02 3e bc 06 f7 cb bd d4 5b e1 bb c6 dc 05 3d
       -0.011597183 -0.09959225 -0.006877402 0.03268125
0001a0 63 f6 9a 3d 1b c9 d5 3d 1d a9 a3 3d 76 a9 c8 3d
       0.07566526 0.104387484 0.0799124 0.09797947
0001b0 38 4b 2d bc dd c8 a2 3c 61 cf 75 3d 94 db fd bc
       -0.010577016 0.01987117 0.060012225 -0.030988492
0001c0 51 cc bd ba 97 b3 ee bc 41 5e 21 3d 4e ba a9 bc
       -0.0014480447 -0.02913837 0.03939653 -0.02071872
0001d0 c5 d9 80 3d d5 cd 77 bc 36 14 f4 3d d3 e7 c3 3d
       0.06291536 -0.015124758 0.119179174 0.09565701
0001e0 ac 6a 45 3d a2 74 fd 3c 7e 2c a2 bd 29 62 94 bd
       0.048197433 0.030939404 -0.079186425 -0.07245285
0001f0 54 63 b4 3d 3b b6 6d bc b0 bd 02 3e 6a 28 ac 3d
       0.08808008 -0.014508779 0.12767673 0.08406146
000200 cd 02 aa 3b 4f 43 87 3d 28 c5 a5 3d c2 03 cf 3d
       0.005188322 0.06604635 0.08094245 0.101081386
000210 98 02 b8 bd 91 45 18 bd 06 a0 ab bc 75 19 43 bd
       -0.0898487 -0.03717572 -0.020950329 -0.0476317
000220 4f 32 54 3d 8d e5 ca bc ba f3 c0 3d 0d 2d b2 3d
       0.05180579 -0.024767661 0.09421487 0.08699999
000230 f0 61 2c 3d 85 a8 c9 bb 28 f8 4f 3d 3e 49 c4 3c
       0.042085588 -0.0061541223 0.05077377 0.023960706
000240 dc de 92 bd b7 cc 9d 3d ca b1 ba bd 3f 43 67 3d
       -0.07171413 0.07705062 -0.09115942 0.056460615
000250 c4 6b 3e bd 28 52 62 3d ff 29 77 3d 55 a9 5f ba
       -0.046489492 0.05525413 0.060342785 -0.00085320073
000260 50 4c 20 3d 8d a3 f3 3d 9e 60 e4 3d 73 7a 5b 3b
       0.039135277 0.11896429 0.11151241 0.0033489733
000270 d6 5f a9 bd da 57 95 3d 6e da 16 bd 53 e0 d7 bd
       -0.082702324 0.07292147 -0.036829405 -0.10540833
000280 80 d4 89 bd 40 e3 09 bd b3 75 bf bd d6 b4 05 bd
       -0.06729984 -0.033663988 -0.09348621 -0.03264316
000290 69 08 36 3d b0 40 e6 bc 7a 69 68 3b c2 45 24 3d
       0.044441614 -0.028107017 0.003546326 0.04010559
0002a0 0a 58 85 3d 1f c8 67 bd 83 0e cf 3c 9e a0 00 bd
       0.06510933 -0.056587335 0.025275474 -0.031403176
0002b0 58 6e d1 3c 9f 7c 7c 3d 7d f9 a7 bd e0 9f 57 3d
       0.025565311 0.061642285 -0.08201883 0.052642703
0002c0 04 b7 04 bd 65 e7 79 bd ec 08 76 bc 35 43 7f 39
       -0.0324011 -0.06101169 -0.015016776 0.00024343732
0002d0 f1 58 08 3d c5 5c 60 bb 2d 58 6c bd ff 77 53 3d
       0.033287946 -0.0034234982 -0.05770128 0.05162811
0002e0 d6 ce cf bc d5 cc d3 3c d4 69 a4 3d 30 2d 69 3d
       -0.025367182 0.025854507 0.080279976 0.05692786
0002f0 68 c4 13 3b 7f ec 3c bd 54 f8 c7 3d 38 b7 19 bd
       0.0022547487 -0.046123978 0.09764162 -0.037528247
000300 d2 a8 57 3d e5 b3 d7 3d d8 98 e6 3c a3 1a 79 3b
       0.052651234 0.10532359 0.028149053 0.0038010261
000310 1f 35 89 3d 55 8e b9 bd 24 88 18 bd 19 66 a5 bd
       0.06699585 -0.09060351 -0.03723921 -0.08076114
000320 e6 60 2f bd e2 18 e5 3d 8e d1 14 bd a1 6b ad 3d
       -0.04281702 0.11186387 -0.03633266 0.08467794
000330 08 98 a5 bc 7e 83 e6 3d 22 3a da bc b6 4e 83 3c
       -0.020214096 0.11255549 -0.026639048 0.016028743
000340 b0 60 b6 3d 04 4e 80 bd 5f 5b ce bb 40 8a 62 3d
       0.089051604 -0.0626488 -0.0062975134 0.055307627
000350 28 77 94 3d 19 ec d8 3c 1e 49 3d 3b 41 ef 0b 3d
       0.0724929 0.026479768 0.0028882693 0.034163717
000360 ed 67 b5 3d b1 3c 06 3c 81 c9 79 3d f2 f7 ad bc
       0.08857713 0.008193181 0.060983185 -0.021236394
000370 d7 78 39 3d 65 2d 90 3c e5 6f 37 bd a7 ab 97 3d
       0.045281257 0.01759977 -0.044784445 0.07405787
000380 e5 29 3e 3d f9 75 b2 bd ac ed 01 3c 7a f1 86 bd
       0.046426672 -0.08713908 0.007930201 -0.06589027
000390 4a 4e 6c 3d 20 70 a9 bd fb 37 7a 3d 3e e6 dc 3c
       0.05769185 -0.08273339 0.061088543 0.026965257
0003a0 30 ba c7 3c 2c 40 fb 3d d2 de 42 3c bd 64 f2 3c
       0.024380773 0.12268099 0.011893945 0.029589051
0003b0 ce 9c 83 3d 32 f8 b3 3d 56 69 00 3e 45 c3 21 bd
       0.064263925 0.08787574 0.12540182 -0.039492864
0003c0 17 17 23 3d d1 a8 c5 3d 8e ee d6 bb ba 52 4e 3d
       0.039816942 0.0965134 -0.0065591997 0.050371863
0003d0 86 cc 29 3d 65 61 f7 3c e4 e2 fe 3c 0b 60 4a bd
       0.041454814 0.030197809 0.03111405 -0.049408
0003e0 e7 f7 94 bd 84 58 43 3d f1 d4 8c 3d d3 88 ec bc
       -0.07273846 0.047691837 0.06876553 -0.028873837
0003f0 45 a0 fd 3d 5c ee f9 3b 38 84 0f 3e 77 8b c8 3d
       0.123840846 0.0076272916 0.14015281 0.09792226

bias f4 [32]
000000 1e c7 f8 bd a2 ca 99 bc 5a fb e0 3d ee 13 91 3c
       -0.121473536 -0.01877338 0.109854415 0.017709699
000010 9f 4f a1 bd 9c 04 c5 bc 42 fd 05 3e 5f e9 ae bc
       -0.07876515 -0.02405005 0.13084891 -0.021351514
000020 8e 06 2b 3c c7 14 95 3b ed f1 68 bd ca 95 f1 bb
       0.0104385745 0.004549596 -0.056871343 -0.0073725926
000030 47 14 3f 3e ac 69 c2 3d ab 34 e2 3d 8d 7f 62 3c
       0.18660079 0.094928116 0.11045202 0.013824356
000040 13 01 03 3e 4c db 45 3d 72 a9 25 3e 33 28 82 3d
       0.12793379 0.04830484 0.1617792 0.06355324
000050 e4 80 85 ba 59 09 e6 bd 89 89 a0 bc bd 84 d2 3d
       -0.0010185507 -0.11232252 -0.019596832 0.10279224
000060 be 16 a5 3c f6 36 93 bc eb 83 0f bb 85 6f a6 3d
       0.020152446 -0.017970543 -0.0021898698 0.081267394
000070 77 48 1d 3e 1a e5 f8 bb 77 f6 b0 bc 03 02 00 3d
       0.15359674 -0.0075956704 -0.021601899 0.03125192

weight f4 [32, 16, 2, 2]
000000 81 b3 24 bd 22 01 c5 bd 17 1d a9 bb c5 d2 62 3d
       -0.04021025 -0.09619357 -0.0051609385 0.055376787
000010 ff c5 b3 bd 0d f1 e8 bd b7 c4 47 3d bc 92 0d be
       -0.08777999 -0.11374102 0.048771586 -0.13825506
000020 1d 01 8a 3c a1 ae ae 3d 34 16 8b 3d 0e 65 b9 bc
       0.016846234 0.085294016 0.06791344 -0.022631194
000030 e6 e5 02 be 03 a6 72 bd 07 75 d1 bd e7 c5 0b be
       -0.12783012 -0.059240352 -0.10227399 -0.13649713
000040 06 99 ba 3c a2 f2 fc 3d d9 59 44 3e 23 52 7a 3e
       0.022778045 0.12350966 0.19174899 0.24445395
000050 be 6a 01 bc 0c 8b f3 bd 40 41 e3 bc fb 9a 7b 3d
       -0.0078989845 -0.118917555 -0.027741075 0.061427098
000060 88 22 6f 3d 9f 31 83 bd 52 7c 75 bd f6 5e c4 bd
       0.05838254 -0.06405949 -0.059933014 -0.09588425
000070 f9 69 3c 3d aa 58 6a bd b9 84 91 3d 6f 2e 07 3d
       0.0459995 -0.057213463 0.07105393 0.033003267
000080 4a e5 ed 3b 74 2a 00 bd 35 9e 88 bd af a9 be bd
       0.0072599994 -0.031290486 -0.066708006 -0.09309708
000090 4d 5b cc bc 7b fe f6 bc c9 83 1d bd e6 f6 23 be
       -0.02494588 -0.030150643 -0.03845576 -0.16012153
0000a0 d9 40 32 bd 87 40 97 bd 32 c4 06 be 27 4b d9 bd
       -0.043518875 -0.073853545 -0.1316078 -0.10610037
0000b0 d5 8a 72 bd e4 de 9f bd 06 d7 89 3d 21 6e 41 bd
       -0.05921443 -0.07806185 0.067304656 -0.047224168
0000c0 6c 7c ba bc f3 fe ad 3d ea 15 ba bd 9d 82 bd 3c
       -0.022764407 0.08495893 -0.09086211 0.02313357
0000d0 5b aa 65 3d 80 c5 0f 3e 44 bd 05 3e 07 de 04 3d
       0.056070667 0.14040184 0.1306048 0.032438304
0000e0 c4 cd d5 3d 4d a0 c1 bd 34 dd 9d bd d8 05 b5 3d
       0.10439637 -0.09454403 -0.07708207 0.08839005
0000f0 75 35 1f 3e 56 b4 21 3e 2e c3 1c 3d 6e 81 b0 3d
       0.15547736 0.15791449 0.038272075 0.08618437
000100 99 57 c7 bd 0c 93 3d bd 84 44 c9 3d 01 ae cb bd
       -0.09733505 -0.046282813 0.098275214 -0.09945298
000110 b7 22 0b be 46 22 3d bc 9c 9e d6 3c 13 53 c6 3d
       -0.13587461 -0.011543816 0.026198678 0.09683814
000120 9d fd 11 3d d4 89 38 3c cf 58 e7 3d 85 af b9 3d
       0.035642255 0.01126333 0.11296236 0.09066681
000130 c5 55 65 bd ce be d2 bd 7a cd ce bd dc 95 1f 3d
       -0.05599 -0.10290299 -0.10097785 0.038961276
000140 bc 74 3f 3d 51 24 98 bc 11 3f d3 3d 7c 38 11 3d
       0.046742186 -0.018572005 0.10314763 0.03545426
000150 20 6e f7 3b d7 08 df bc 48 fa 84 3d e9 8b ff 3c
       0.0075509697 -0.027225895 0.0649305 0.031194644
000160 4f 6a 9f bd 69 55 ad bc 31 d2 88 3d 77 3e 61 3d
       -0.07783949 -0.02115889 0.06680716 0.05499121
000170 ab 74 0b bd b8 12 e0 3d ea d9 bf 3d fe af 86 bd
       -0.03404681 0.1094107 0.09367736 -0.065765366
000180 06 2c b3 3d bf e2 a9 3d 03 2b 9b 3d 22 06 50 bd
       0.08748631 0.082952015 0.07576563 -0.0507871
000190 e7 fc 92 3d 7f 8f 6f bd 28 5a a3 3d 7e 50 39 3c
       0.071771435 -0.058486458 0.0797618 0.011310695
0001a0 07 31 69 3d 0f da 8a 3d c6 67 ee 3c 13 6d da 3c
       0.05693152 0.067798726 0.029102217 0.026663339
0001b0 a9 fd 4c bd e0 10 af bd ea f1 ac bd 65 ae 66 bc
       -0.050046597 -0.085481405 -0.08444579 -0.014079665
0001c0 1f e8 b6 bd e8 36 c9 bc a4 4a ac 3b bc 0b db bd
       -0.08930992 -0.024562314 0.0052579213 -0.106955975
0001d0 41 e8 04 3e 4e d8 b5 3c e7 da b5 3d 98 21 c0 bd
       0.12979223 0.022197869 0.08879643 -0.093814075
0001e0 7b b6 9f 3d 99 93 9e bd 5b 24 f9 3c 13 f9 be 3d
       0.07798477 -0.07742996 0.030412843 0.09324851
0001f0 4d 17 e7 3d c6 04 dd bd 33 0b 1e bd 6a 02 33 bd
       0.11283741 -0.10791926 -0.0385849 -0.043703474
000200 1f 64 85 3c bc fe b0 bd e0 b8 9d 3d f8 24 e3 bd
       0.016283093 -0.08642337 0.07701278 -0.110910356
000210 c0 bd e2 bc e9 b8 78 bc 34 91 6d bd a1 1d c2 bc
       -0.02767837 -0.015180805 -0.057999805 -0.023695769
000220 48 d3 0d be d2 4c d6 bd 43 d7 1e be c1 0c f6 3a
       -0.13850129 -0.10463871 -0.15511803 0.0018772112
000230 2e 1c 78 bb 14 1d 86 bb a8 ba 9a 3d c7 c7 db 3d
       -0.0037858593 -0.004092822 0.07555133 0.10731464
000240 db fd 97 3d 12 3d 90 3d 6c 38 0c 3e 3f ef b6 3b
       0.07421466 0.07042898 0.13693398 0.0055827196
000250 61 b3 9e 3d d5 45 d6 bd 9c 3e 14 be f1 c5 15 bd
       0.077490576 -0.10462538 -0.14477009 -0.036565725
000260 00 71 09 bd e8 f7 7b bd ca e6 86 bd 1d 9f c2 3b
       -0.03355503 -0.06151572 -0.06586988 0.005939378
000270 22 e4 1f bd de 77 7a bc 34 1b f5 bc 86 9d ae 3d
       -0.039035924 -0.015287368 -0.029920198 0.08526139
000280 60 83 36 3d d5 0f bf bd af 92 f0 bd ad 70 0d bd
       0.044558883 -0.093291916 -0.11746728 -0.034531284
000290 e9 db e8 3d 12 67 1d 3e 3f 26 32 3e 99 fd 18 3e
       0.113700695 0.1537135 0.17397402 0.1494049
0002a0 b1 61 a6 bc 7a db f5 bd 89 cd 3a 3d 78 a7 41 bb
       -0.020310255 -0.120047525 0.04560617 -0.0029549282
0002b0 56 6b 97 3d 1f 64 3f bd 13 be ed bd cf c7 59 3d
       0.073935196 -0.046726342 -0.116085194 0.053169068
0002c0 b3 87 c8 bb b2 e4 0b bd 93 59 0a 3e 0f bd a6 3d
       -0.006119692 -0.034153648 0.13510732 0.08141529
0002d0 e7 d2 29 3e a3 71 23 3e df d8 c3 bc b1 fa 38 3e
       0.16584359 0.15961318 -0.023907123 0.18064381
0002e0 d6 05 e1 3d 4c 1a 01 be 5d a5 a4 bc 5e b1 7f 3d
       0.10987441 -0.12607688 -0.020098383 0.06242501
0002f0 61 ae a3 3d 31 b5 c4 bc 2a 07 47 bb 20 83 1d bd
       0.079922445 -0.02401218 -0.003036926 -0.03845513
000300 9c 38 e8 3c 61 6b ea bd 3b c7 c3 3b ce 8f b2 bd
       0.028347306 -0.11446262 0.005974678 -0.08718835
000310 b5 f2 b8 bd b8 50 b2 3d 95 4b c8 bd a5 d8 2f bc
       -0.09030668 0.08706802 -0.09780041 -0.010732804
000320 7c a3 48 3d 43 3b da bd 00 32 91 bd f7 23 86 bd
       0.048984036 -0.106558345 -0.07089615 -0.065498285
000330 5b ea 08 3e 54 5a 1e 3d f3 55 9c 3d 0e 7b 3c bd
       0.1337065 0.038660362 0.07633581 -0.04601579
000340 f2 19 b2 bd 9c 84 11 3e 01 55 f4 3d ed 2a 10 3e
       -0.08696355 0.14210743 0.11930276 0.14078875
000350 41 dc b0 3c 6a ce 04 3c a0 8d 77 3c c6 20 c4 bd
       0.0215894 0.008105854 0.01510945 -0.095765635
000360 d5 0e 96 bc 21 5d 07 3e 30 61 10 3c fa 2d c3 3c
       -0.01831762 0.1321912 0.008812234 0.023825634
000370 17 be ed bd a4 a6 94 3d cc 46 22 ba 14 4b b0 3a
       -0.116085224 0.07258347 -0.0006190359 0.0013450109
000380 ec 9f e2 bc 54 38 6f 3d ae 6e b2 3d 89 fc 97 3d
       -0.027664147 0.058403328 0.08712517 0.07421214
000390 72 eb f3 bc 7b 96 9c bb 27 7d e2 3c 3c e0 c4 3d
       -0.029775355 -0.004778681 0.027647568 0.09613082
0003a0 45 d8 b9 3c e2 26 19 be b4 7b 08 be 6a 19 8a bd
       0.022686133 -0.14956239 -0.13328439 -0.067431286
0003b0 f0 0e 92 bc b3 0d cd 3d 9f 2d 0a 3d 69 42 a8 3d
       -0.017829388 0.100123785 0.033734914 0.08215792
0003c0 8f e4 91 bd 9c a2 0a 3e a8 3e 04 3e 76 5c cc 3d
       -0.07123672 0.13538593 0.12914526 0.09978573
0003d0 00 fb 99 3d 5f 4b 2e 3e 94 d4 8d 3d 97 57 53 3d
       0.075185776 0.1702094 0.06925312 0.051597204
0003e0 e2 6c 47 3d 64 1c 64 3c 49 49 67 3c 90 0a ae 3d
       0.048687823 0.0139227845 0.014116594 0.084981084
0003f0 1e fd 05 3e 59 c1 e1 3d a9 18 cf 3d 35 11 a4 3d
       0.13084838 0.11023206 0.101121254 0.080110945

bias f4 [16]
000000 c0 23 69 3d 31 8e fb bd 56 74 64 3d af be 40 3e
       0.05691886 -0.1228298 0.05577501 0.1882274
000010 31 92 a3 bc 22 6f 9d bd 4e 13 01 3e be 8c 10 bc
       -0.01996717 -0.076872125 0.1260502 -0.008822618
000020 9f 14 d6 bd 6f 1c 6c bb e5 df 1c 3d 45 de 20 3e
       -0.10453152 -0.003602769 0.03829946 0.15709789
000030 c3 50 a3 3d 86 17 15 3e 51 52 e7 bd 16 5b be bd
       0.079743885 0.14559755 -0.112949975 -0.09294717

weight f4 [4, 16, 1, 1]
000000 96 d4 51 3e 31 e1 08 3d f9 33 86 3d 39 d9 a6 3d
       0.20491251 0.033417884 0.06552882 0.08146901
000010 66 8a 8f be f8 7c 64 3e 50 8e ba bd 6e cc 96 3e
       -0.28035277 0.22313297 -0.09109175 0.29452842
000020 54 7c 1f 3e 88 ce 36 3d 29 24 08 3e 2f 2d 7f bd
       0.15574771 0.044630557 0.13295044 -0.06229895
000030 65 41 ee bd ef 8b 7a be 65 4d c2 be ee 95 d5 bd
       -0.11633567 -0.24467443 -0.37949672 -0.104289874
000040 a5 ec 57 be 52 87 ea bd df 8a 9a 3d 6e a8 b2 be
       -0.21086366 -0.114515916 0.07546019 -0.34894127
000050 d6 83 48 bc ed ef da 3d 8c 33 8d be 46 52 52 be
       -0.012238463 0.106902935 -0.2757839 -0.20539197
000060 90 8d d7 3d 2c ec 66 be 53 49 22 3e 78 37 f3 bd
       0.10525048 -0.2255103 0.15848283 -0.11875814
000070 0f 0b 4d be b5 b6 9c be ca ec b2 3d 9e 38 97 3d
       -0.2002375 -0.30608144 0.0873657 0.07383846
000080 78 76 0a 3e cc 7c 9e 3d dc 51 a4 3c 80 f5 1d 3e
       0.13521755 0.07738647 0.020058565 0.15425682
000090 01 86 06 be fa d4 05 3e d8 ce 1c 3e 33 1f 99 bd
       -0.13137056 0.13069525 0.1531328 -0.07476654
0000a0 5b 0d 54 3d d8 18 b7 bd 05 48 f6 3d 24 14 27 3e
       0.05177055 -0.089402854 0.120254554 0.16316277
0000b0 fc e2 5f 3d f5 d5 53 be 3d 7e ff 3c 1d 4f 98 be
       0.05465983 -0.20687087 0.031188125 -0.2974786
0000c0 61 35 13 bd 8e 7d e3 3c 46 22 82 3c a5 a4 92 be
       -0.035939578 0.02776983 0.015885483 -0.2864124
0000d0 d0 1d 6f 3c 03 a6 17 be 9c e8 83 be e3 52 ab 3d
       0.01459451 -0.14809422 -0.25763404 0.08365419
0000e0 73 e2 4b bc fd b9 8a be 28 7b a4 bd 67 eb 75 be
       -0.012444126 -0.27095023 -0.08031303 -0.2401558
0000f0 1e 53 52 be 5c 4b 56 be fb 8d bd 3d 5b 57 95 3c
       -0.20539519 -0.20927185 0.09255596 0.01823013

bias f4 [4]
000000 70 c2 98 bd b2 2a 27 bc ab e7 20 be 34 6c 04 be
       -0.07458961 -0.01020305 -0.15713374 -0.12931901
