code/model_scripted.pt (torch, 157194 bytes, 12 tensors)

weight f4 [16, 1, 3, 3]
00000000: f8f1 e8ba 85f7 373e 1152 8cbe 16b0 7abe
00000010: 7b2d 03be ea63 b83d 1fc8 bfbb c0c2 873e
00000020: bcd0 eebc f5e3 b23d 25e3 cfbd fbe0 87bd
00000030: 646f a3be 22e1 62be c494 0dbe 99f3 393c
00000040: 31eb 053e 0dc9 4b3e 8b6d 68be 78a9 15be
00000050: 82e8 f53d 2335 8d3e 7a8a 8ebd 5566 7e3e
00000060: 3b2a 60bd 2560 0c3d cb05 9a3e dcd3 9dbe
00000070: 3de3 55be 4ad4 aabd 560d 04be 44f7 933e
00000080: 9c3f 5cbe f120 1cbe a079 6dbe 1358 9fbe
00000090: 1b3a 46be 6737 933e 1e55 193e 3175 263e
000000a0: 91ca 973c 5af9 2dbe 8e14 6b3d 87d7 9ebe
000000b0: 849e 75be d8fd 30be 0d56 563e 651b 473e
000000c0: 5567 18be 2c71 55bc 8547 593e 4527 a93e
000000d0: f371 063e cd59 343d f396 653e 1b93 48be
000000e0: 8b9b 803d 4f33 84be 7652 6cbe 2bf3 2fbe
000000f0: 8624 1b3e 0702 0a3e 91ec 49be c330 cc3d
00000100: c65b 3a3e ba6c 30bd 5823 403c 0b21 9c3d
00000110: 32bb 523e 735c a33e 2108 84be 8539 fcbd
00000120: 951f 053e cfe4 8c3e df00 943e af13 963e
00000130: 07d0 853d b8eb 94be 4a02 f33c 6090 56be
00000140: c590 9fbe e725 983e b347 823e 98bb a9be
00000150: fad2 813d 75e8 61bd b595 5cbd 4339 1bbe
00000160: 2d49 043e 2126 49be 3236 f83d 4d97 2b3e
00000170: ad53 733e 6a35 fd3d 446d a9be 2572 5ebe
00000180: ab68 293e c6d5 8c3d 76a5 85be 1e8a 43be
00000190: ac0f a13e 8302 673e e446 14be 02be aabd
000001a0: cf46 a2be c3fc afbb 603e 80be 8369 83be
000001b0: 4a44 8ebc 1318 513d 29c3 0abe 4790 4b3e
000001c0: d1b0 4ebe ad5e 9b3e 8ff0 6a3e 8668 8fbe
000001d0: 67db a7bd 3e65 833c e647 4b3d 18ee a33d
000001e0: b9f8 063e 33b1 ab3c 0195 25be b389 223e
000001f0: b73a a3be 835e 49be 95e4 a8bd 2d44 25be
00000200: 08c8 ecbd 8762 8bbe cd33 8fbd 48f7 933d
00000210: 7d5f 5dbe 990c 84bc 9b5d 753e b642 08bd
00000220: a82a 283c 2c61 e3bc fd34 8c3d a60e 5a3e
00000230: e32c a23e 2fca 593e 958b a23e 5c4b bdbc
-0.0017772308 0.17965515 -0.27406362 -0.24481234 -0.12810318 0.09003432 -0.0058527137 0.2651577
-0.029152267 0.087348856 -0.10150746 -0.066347085 -0.31920922 -0.22156194 -0.13826281 0.011349582
0.13078 0.19900914 -0.22698037 -0.14615428 0.12007238 0.27579603 -0.06960006 0.24843724
-0.054727774 0.034271378 0.30082545 -0.30825698 -0.20887466 -0.08341272 -0.12895712 0.28899586
-0.2150864 -0.15246941 -0.23190928 -0.31121883 -0.19358103 0.28753206 0.14973876 0.16255642
0.018529208 -0.16989651 0.05739265 -0.3102381 -0.2398625 -0.17284334 0.20931263 0.19444044
-0.14883168 -0.013027471 0.21218689 0.33037773 0.13129406 0.044030953 0.22420864 -0.19587366
0.062796675 -0.25820395 -0.23078331 -0.17182605 0.15150651 0.13477336 -0.19719149 0.09970238
0.18199071 -0.04307244 0.011727177 0.0762349 0.20579222 0.3190647 -0.25787452 -0.123156585
0.13000329 0.27518317 0.28906915 0.29311892 0.06533819 -0.2908609 0.029664177 -0.20953512
-0.31165138 0.29716417 0.25445327 -0.33150935 0.06339069 -0.05515333 -0.05385371 -0.15158562
0.1291854 -0.19643451 0.12119712 0.16756935 0.23762389 0.123637035 -0.33091176 -0.2172323
0.16543834 0.068767115 -0.261028 -0.19095656 0.3145727 0.22559552 -0.14480168 -0.08337022
-0.31694648 -0.0053707077 -0.25047588 -0.25666437 -0.017366547 0.05104835 -0.1355101 0.19879256
-0.20184638 0.3034567 0.22943328 -0.28009433 -0.081961446 0.016039487 0.049629115 0.08004397
0.13180818 0.020958519 -0.16170122 0.1587284 -0.31880733 -0.1966496 -0.082467236 -0.16139288
-0.115615904 -0.27223608 -0.06992302 0.072248995 -0.21618457 -0.016119288 0.23961489 -0.033266746
0.010264076 -0.027756296 0.06846044 0.2129465 0.3167487 0.21268533 0.31747118 -0.023107223

bias f4 [16]
00000000: 1ddd 98be 57d7 22be 4564 673e cd93 98ba
00000010: 8ea2 28be be4b 83be ae56 9fbe 5a8e 90be
00000020: 9684 8cbd 9736 3c3e cd83 373e c816 a4be
00000030: 0ff1 553e 6f09 85be 0f47 8ebd 9960 09be
-0.29856196 -0.15902458 0.22596844 -0.0011640728 -0.1646826 -0.25643724 -0.3112082 -0.28233606
-0.06861226 0.183802 0.17921372 -0.3204863 0.20892738 -0.2598376 -0.06947147 -0.13415755

weight f4 [32, 16, 3, 3]
00000000: 0e7c 83bc 68cd 85bc 1923 99bd 8c5b 93bd
00000010: 33ab 55bc 0041 8d3a 1f0f 1bbd 7a94 003d
00000020: 279c 99bd dcf6 b7bb 790e 963d d137 0bbd
00000030: 272a 9a3d ad6d f73c 0dea 99bd 390c 583d
00000040: 410d 1ebc b266 18bd fa82 8a3d c5e0 87bd
00000050: 1dca 223c 9dc6 86bc c8d3 773d d5b5 c63c
00000060: 2e17 283d 7e3e f93c a604 9cbc 71a5 8fbc
00000070: bb9f 8cbd c8fa 383d 9680 873d c77e 693d
00000080: 72c5 70bd 550e 733b 34a2 70bd 6df9 3bbd
00000090: 675b 47bd d498 e53c 04b4 4abd df36 e7ba
000000a0: 5dd0 693b 238a 5d3d e4de 80bd 29ad 69bd
000000b0: acd4 43bd 61f6 723d 9849 edbc 5bfa 913d
000000c0: eef8 fe3c a722 3d3c 9421 c139 d0a3 7dbc
000000d0: e790 3b3c b9c6 93bc 6470 19ba 6031 2e3c
000000e0: 107f 85bd 4ee7 32bd e5cf 893d 0481 8abd
000000f0: 3014 c4bb 81d4 a83d c09a f63c f6b5 593b
00000100: 77ec 91bd e90f 2d3d c04a 6fbd e8e6 b9bc
00000110: 162b ddbc 2770 3abc 0b62 f73a 6bc5 8e3d
00000120: 1593 3a3c 8de3 9a3d 9ed9 543d 32d2 53bd
00000130: 581c 1d3d f941 6dbd 80ab 0cbd 09e3 d03c
00000140: 7584 e93c f70e 823d b1a9 d3bc 052f 933a
00000150: 98c0 333d 6e07 a3bd fad3 7a3d 9420 8bbd
00000160: 6003 0c3b 71eb 57bc b1b7 2fbd f6b1 443c
00000170: cd28 8f3d 3378 bfbc 7798 46bd 8d5c f4bc
00000180: cd22 a7bd 5722 1e3d 13de 1fbd 29c7 63bd
00000190: 00b1 44bd f242 443d ecc2 343d 5cfe 823d
000001a0: f79f f73c b0fb e3bc 1cc5 bebc 25ad c93c
000001b0: 4852 8e3d 66b8 c13c 2671 1dbd e166 1cbd
000001c0: 7155 9fbd a49b 9b3c 1180 3bbd b922 96bd
000001d0: 3caf 973d 6cab 5dbd 190f 1bbc e87b c43c
000001e0: 20fd 2d3b 4ead 65bd f5a5 89bd 1109 883d
000001f0: c157 5e3c c41b 8e3d 55e0 e7bc 288f c93c
00000200: a88e 9cbc 7cb5 85bb 5e94 4fbd e19c e73c
00000210: b818 d43c 2a33 e0ba bb9d 99bc 2156 4ebd
00000220: 011f 703d 3107 7abd 4be8 0f3d e764 ddbc
00000230: ac9b 20bd 48cb 823c 993a 2dbd a470 a53c
00000240: 458f 813c 5eaf 7fbd c2e9 5a3c 711e 0f3d
00000250: 30e3 043d 2c8b 34bc a6fe 8cbd 7180 5abc
00000260: c0f4 e83c 9399 00bd 2904 fb3c 0f43 5f3d
00000270: ff4a 36bd 79ba 32b9 d613 093d b3c2 b63b
00000280: 88d5 c43b 55d8 1a3c 9b37 88bd 9cd4 b53b
00000290: 5f44 683d fabd 973d e485 443d 2e93 263c
000002a0: c04f 1b3d d025 2abd 3c7a 8fbd 23b4 94bd
000002b0: 3f4e a83d 09c9 543d 4fd8 6fbd d8a4 013d
000002c0: 54e1 7d3d 46a7 a83d 0849 933d d548 823d
000002d0: 78af a4bc 20c1 f7bc b614 8a3d ae2f 3b3d
000002e0: 6d7f 51bd 2763 973d ded3 203d 94fb 353d
000002f0: 8b07 5abd 41aa bb3c 5b82 f7bc b54d 833d
00000300: 0308 83bc 17ca 003d 1b21 623c 6b21 0d3d
00000310: 4a2e f0bc 1354 223d ad7f 6ebd e7d4 993c
00000320: ed17 67bd e96e a8bd 1d1c 89bd a8a9 863d
00000330: 9995 383d a611 a03d adab 883d 0176 9abd
00000340: 4008 6dbd 41ff 6cbc c5c4 61bd c7ec 683d
00000350: bd12 83bd fda1 2abd 6fed a6bd e0e2 45bd
00000360: 5052 8a3d e5af 893d 4b3e 703d 79ba 813d
00000370: dfb4 953d 5fff b6bc 6917 123d 1101 963d
00000380: a6a5 d93c 3e90 a83d e4f0 2c3d e417 503d
00000390: b31e f7bc 66af 1f3d 7980 0c3c 7f39 abbc
000003a0: 4a82 44bd b09f 43bd 6b5f 85bd 2c0d 613d
000003b0: 8c91 6e3d b0c6 2bbc ed9e 49bd 78dc 813d
000003c0: d42e 563d b136 aa3b 6240 25bd 7122 9c3d
000003d0: 7844 0a3d be42 82bd cc8a a13d 1d96 7f3d
000003e0: 31ec ffbc 873d 3c3d e885 45bd 1b1a 64bc
000003f0: 84dd 8e3d 401f 203b 3d7e 75bd 945c ecbc
-0.016050365 -0.016333297 -0.074773975 -0.071951956 -0.013041305 0.0010776818 -0.037856217 0.0313916
-0.07500487 -0.0056141447 0.07326979 -0.033988778 0.07527571 0.030203665 -0.07515345 0.05274603
-0.009646715 -0.037207313 0.06763263 -0.06634668 0.009935883 -0.016452128 0.060504705 0.024256626
0.04103773 0.030425306 -0.019045185 -0.017534943 -0.06866404 0.04516104 0.06616323 0.05700567
-0.05878205 0.00370874 -0.05874844 -0.045892168 -0.048671152 0.028026976 -0.049488083 -0.0017640254
0.0035677173 0.054086816 -0.06292513 -0.057049904 -0.04781024 0.059316996 -0.028965756 0.0712783
0.031124558 0.011543906 0.00036836846 -0.0154809505 0.011448122 -0.018039094 -0.00058532343 0.010631889
-0.06518376 -0.04367762 0.06729106 -0.06762889 -0.005983852 0.08243657 0.030103087 0.003322003
-0.0712518 0.0422515 -0.058420897 -0.022693112 -0.026998084 -0.011379278 0.0018873824 0.06971248
0.011387606 0.07562933 0.05196535 -0.05171413 0.03835711 -0.057924245 -0.034343243 0.025498884
0.028505543 0.063505106 -0.025837751 0.0011229223 0.043884844 -0.079604015 0.061237313 -0.06793323
0.0021364316 -0.013178692 -0.04289979 0.01200532 0.06990204 -0.023372745 -0.048485246 -0.029829288
-0.081609346 0.038606968 -0.039030146 -0.055609856 -0.048020363 0.047915407 0.044131204 0.063961715
0.030227644 -0.027829975 -0.023287348 0.024618695 0.06949288 0.023647498 -0.038437985 -0.03818405
-0.077799685 0.018995114 -0.04577643 -0.073308416 0.0740647 -0.05411856 -0.009464049 0.023984864
0.002654858 -0.05607348 -0.06721107 0.06642354 0.013570727 0.069388896 -0.028305212 0.024604395
-0.019110993 -0.0040804725 -0.050678603 0.028273048 0.025890693 -0.0017105092 -0.01875197 -0.050375108
0.058623318 -0.061042015 0.03513364 -0.027025653 -0.03921096 0.015966073 -0.04229221 0.020195313
0.015815387 -0.062423103 0.013361396 0.03494114 0.032443225 -0.011019509 -0.06884508 -0.013336287
0.028437018 -0.03139646 0.030641632 0.05450731 -0.044505116 -0.0001704487 0.033466183 0.005577409
0.0060069 0.009450992 -0.06651231 0.0055490267 0.05670583 0.07409282 0.04797925 0.010166926
0.037917852 -0.041539967 -0.07005736 -0.07260921 0.08218049 0.051949535 -0.058555897 0.031651348
0.061982468 0.0823503 0.07191664 0.06361548 -0.020103201 -0.030243456 0.067422315 0.045699768
-0.051146913 0.07391959 0.039264552 0.044429377 -0.05322985 0.022908332 -0.030213526 0.06411306
-0.015995031 0.031442728 0.013801838 0.034455698 -0.029318947 0.03963096 -0.05822723 0.018778278
-0.0564193 -0.082242794 -0.06694815 0.06575328 0.045064542 0.07815866 0.066733696 -0.07542039
-0.057869196 -0.014465154 -0.055119295 0.056866433 -0.064000584 -0.04165839 -0.081507556 -0.048312068
0.06753981 0.06723002 0.058653157 0.06334395 0.07309889 -0.022338567 0.035666857 0.07324422
0.026568245 0.08230637 0.04222192 0.050804034 -0.030166006 0.038985632 0.008575552 -0.02090144
-0.047975816 -0.04775971 -0.0651234 0.054944202 0.058244273 -0.0104843825 -0.04922383 0.06340879
0.052290753 0.005194508 -0.040344603 0.07623757 0.033756703 -0.06360386 0.078878015 0.06239902
-0.031240555 0.045957115 -0.048223406 -0.01392224 0.069758445 0.002443269 -0.059934843 -0.028852738

bias f4 [32]
00000000: 604c f0bc 16ca d23c 9d8e ad3c 52c9 90bd
00000010: bc35 043d cd63 233d ae53 5f3a 1943 f73b
00000020: 3871 963c ccfe 793d 80bf 943d efd9 333c
00000030: 6f97 153d 1acb babc b499 4f3d 245c 0abd
00000040: bead 8cbd 8a0c 1c3d 8503 f53c c173 9e3c
00000050: 7f21 0d3d 5514 1b3c 9387 f03c 8f6f 083d
00000060: 716b 3bbd d413 b3bb 4f24 5e3c 1cb6 3fbc
00000070: c872 8dbd 94d1 113c ab81 4c3d fc72 32bd
-0.029333293 0.025731128 0.021186167 -0.07069649 0.032277808 0.0398901 0.0008519244 0.0075458405
0.018364534 0.06103401 0.07263088 0.010977252 0.03652137 -0.022801924 0.050683692 -0.03377928
-0.06869076 0.038097896 0.029908905 0.019342305 0.034455772 0.009465297 0.029361522 0.033309516
-0.04575676 -0.00546501 0.013558461 -0.011701133 -0.069066584 0.008900065 0.04992835 -0.04356669

weight f4 [64, 32, 3, 3]
00000000: edf7 6c3d 0655 5b3c c32e cd3c 5869 babc
00000010: e78c 45bd 0cb7 b3bc 1360 ea3a 5e59 dcbc
00000020: 68d8 563d b826 1abd f37d 24bd f990 afbc
00000030: 315f 553d 5058 e3bc 72e9 5b3d a0cf e03c
00000040: cf43 21bc a35d f23c 5a57 e53c feff f5bc
00000050: 963a 48bc 955c 6c3d f3ca 0c3d 5677 e7bc
00000060: e22b 82bc 9364 063d ff1e f33c 139b 983b
00000070: 6f08 1dbd c5bb 33bd fd7f 55bc cd4e ab3c
00000080: 51dd e6bb aef9 4cbd 6b3e 7abc 3089 6d3d
00000090: 5b28 47bd b43f 3cbd 0b22 163d 82fd 6c3d
000000a0: 236c 6bbd c389 5dbd 8cb5 9dbc 983f 6d3d
000000b0: 9f61 0cbd 23fe a43b d4db 413d a92d b1bc
000000c0: 375a 9bbc aac9 25bd 7736 af3a ce83 5d3d
000000d0: 72b4 bd3c 8ccc 253d 80d8 7fbb 127e 19bc
000000e0: ac7a 2cbc 71b1 093d 7a41 fdbb 6d27 4ebd
000000f0: 0a87 a9bc 1c8a bc3c 9552 6b3d 2443 2ebc
00000100: f0ec 54bd 0f9b 34bd bf82 41bd ec23 bb3c
00000110: 102e 2e3d 9e46 873c ccd4 9e3c bc70 193d
00000120: 2a8b 243d 02ab 0e3d 1c25 053d 0700 843c
00000130: 4dc0 f93c 2795 27bd a5b6 1dbd 6083 7b3c
00000140: bfc5 0b3c 9f02 54bd e5e7 30bd c81f 42bd
00000150: c831 3c3d e041 1a3d 179c 02bd edfe 033c
00000160: 87d9 6bbc dc58 4e3d 7e66 5abd 7392 32bd
00000170: 8aa0 4bbd aade 083d 21ac f8bc 4812 0c3d
00000180: 8eec 9b3c 1b5b f3bc f572 89bc 3b07 c3bc
00000190: 96ed d03c 3fbc c3bc 6a10 a03c 97ae 693b
000001a0: dafb 42bd a389 1abd 3580 2abd 10e7 f63c
000001b0: fc3c 513c 3cd1 ecba f45d 11bd 79a5 72bd
000001c0: dbe8 b1bc bd42 3cbd b40c 73bd e62f 69bd
000001d0: e7bb 20bd e29d 6abd ca5e 953c 0070 b43c
000001e0: 20a0 c03c 3484 71bd 3fed 133d d0b1 363c
000001f0: d344 f33c 576c 74bc 3a60 e83c 286c 66bd
00000200: edaf a03c 951c 3c3d a32c c43c 0cd8 66bd
00000210: b346 8ebc 3ac3 05bc f3fd f53c 11b9 b6bc
00000220: 0456 053c e80c abbc 32ba 1cbc 497b dcba
00000230: e5c5 0cbd ee42 2abd 4f38 443d cce5 473d
00000240: a0d3 e9ba b9e9 503d e5fc 393d 1407 18bd
00000250: fccf bfbc dbc6 25bd 4611 9c3c 0054 c33a
00000260: a865 04bc 8c33 333d 8247 bdbc 901f 04bd
00000270: 5744 2cbd a48f f7bc 54ac 673d ce4e ebbc
00000280: c94d 86bc 2831 d93c bada 39bd 4cac 14bd
00000290: 5b3f 2f3d eac8 bcbc 4b0f 00bd c02c 09bc
000002a0: 6030 15bc 468d 233c db6b aa3c d5e4 39bd
000002b0: 5028 593d 1eb9 67bd 91d8 9c3c 3524 8fbc
000002c0: dbcb d2bc f354 5e3d 831b 6cbd 93b1 4e3b
000002d0: 428a 1a3d 97c0 553d d73b 4cbd 0bfa d23b
000002e0: f9c7 6b3d 0c13 6fbd a764 6a3c 354e 19bd
000002f0: a746 183c 9a5a 5abd 7d7c ed3c f02b 56bc
00000300: dabc 123d 8b03 8fb9 8265 01bc 0a63 6abc
00000310: 9918 5dbd 9be8 ccbc e54e 023b 7421 3bbd
00000320: dd83 533d a8c9 1fbd d62d c2bc f68c 0cbc
00000330: 5c43 45bd 2b6e 74ba ec62 ebbc e906 4abd
00000340: 2072 bd3a 23ac 553d f4bc 6d3c 0b12 473d
00000350: 400f 17ba ce7c a8bc 7b86 423d 2e87 00bd
00000360: 5548 5fbd 544c 533c 1693 f03c 3f4e 10bd
00000370: 55d2 a93c df59 abbc 8047 eabb d8c3 55bc
00000380: f47f 4ebc f43d 44bd 5fc8 623c b9ea 83bc
00000390: fe17 353d 58c0 123c 8dfc 48bd 7c30 3bbd
000003a0: e974 01bd 85d3 df3c 92d9 1bbd ae56 e2bc
000003b0: 79e5 243c 7dd1 2abd 4cff f4bc be2f 573d
000003c0: 1a2f 03bd 4449 a8bc 17e6 283d cc56 583c
000003d0: 5371 3d3d 8ca2 54bd 0a4d f13c 85a2 13bc
000003e0: 31a0 1abd 7dc0 cebc 3776 69bd fcf4 263d
000003f0: c43f 39bc edb6 6cbd 116a 4e3d 118a 1e3d
0.057853628 0.01338697 0.025046712 -0.02275531 -0.048230078 -0.02193787 0.0017881416 -0.026898082
0.052452475 -0.03763458 -0.040159177 -0.021431433 0.052092735 -0.027752072 0.053689428 0.027442753
-0.009842827 0.029585665 0.027995754 -0.030029293 -0.012220999 0.05770548 0.034373235 -0.028255146
-0.015890066 0.03281076 0.029677866 0.004657158 -0.03833812 -0.043880243 -0.013031003 0.020911599
-0.007045426 -0.0500428 -0.015273671 0.05799216 -0.04862247 -0.04595919 0.03665356 0.05785895
-0.057476174 -0.054086458 -0.019251607 0.057921976 -0.034272786 0.0050351783 0.047328785 -0.021628218
-0.018963916 -0.040475525 0.0013367672 0.054080777 0.023157332 0.040478274 -0.0039038956 -0.009368436
-0.010527294 0.033616487 -0.0077287527 -0.050330568 -0.020694274 0.023015074 0.057451803 -0.010636125
-0.051983774 -0.044093188 -0.04724383 0.022844277 0.042524397 0.016513165 0.019388579 0.037461028
0.04017178 0.034831055 0.032506093 0.016113294 0.030487204 -0.040913727 -0.03850426 0.015351146
0.008531033 -0.051760312 -0.0431899 -0.04739359 0.045945913 0.03766048 -0.03188714 0.0080563845
-0.014395124 0.05037771 -0.0533204 -0.043596696 -0.04971365 0.033415474 -0.030355515 0.03419712
0.019033697 -0.029706528 -0.016778449 -0.023807159 0.025503915 -0.023893474 0.019539077 0.0035657042
-0.047603466 -0.037728917 -0.041626174 0.030139476 0.012770887 -0.0018067728 -0.03548999 -0.05923984
-0.02171748 -0.045962084 -0.059338287 -0.056930445 -0.039241698 -0.057279475 0.018233676 0.022026062
0.023513854 -0.05896397 0.036114927 0.011150792 0.029695904 -0.014918408 0.028366197 -0.05625549
0.019615138 0.045925695 0.023947066 -0.056358382 -0.017367696 -0.008164221 0.030028319 -0.022305043
0.0081381835 -0.020880178 -0.009565877 -0.001682141 -0.034368414 -0.041567735 0.047905263 0.048803136
-0.0017839558 0.051004145 0.045407195 -0.037116125 -0.023414604 -0.040472846 0.019051205 0.0014902353
-0.008080877 0.04375033 -0.023105387 -0.032256663 -0.04205736 -0.03021986 0.05656083 -0.0287241
-0.016394513 0.026512697 -0.04537461 -0.036297128 0.04278503 -0.023045022 -0.031264585 -0.008372486
-0.009105772 0.009982413 0.020803383 -0.045384247 0.05301696 -0.056573026 0.019146236 -0.01747332
-0.025731971 0.054280233 -0.057643425 0.0031538948 0.03772951 0.05218562 -0.049861755 0.006438499
0.057563756 -0.058367774 0.014306224 -0.0374281 0.009294189 -0.05330906 0.028990025 -0.013071999
0.035824634 -0.00027277725 -0.0078977365 -0.014305839 -0.053978536 -0.025013259 0.001988345 -0.0456862
0.051639426 -0.039010674 -0.023703497 -0.00857853 -0.048159942 -0.00093242776 -0.028733693 -0.049322996
0.0014453568 0.052166115 0.014510382 0.04860119 -0.00057624653 -0.020567324 0.04749153 -0.031378917
-0.05451234 0.012896616 0.029367011 -0.03523087 0.020730177 -0.020916877 -0.0071496367 -0.013047181
-0.012603749 -0.047910646 0.0138417175 -0.016103135 0.044212334 0.008956991 -0.049068976 -0.045700535
-0.031605635 0.02732254 -0.038049288 -0.027629223 0.010064476 -0.04170369 -0.029906891 0.052535765
-0.03202734 -0.020542748 0.041235056 0.013204288 0.046250653 -0.05191283 0.02945568 -0.009010916
-0.037750427 -0.02523827 -0.056997504 0.04076098 -0.011306707 -0.05779164 0.05039412 0.03870589

bias f4 [64]
00000000: b65d 463c 2884 e33c c77d 08bd 1e21 7b3c
00000010: de51 1bbd c358 1b3c 2c7a a4bc dd7a b0bc
00000020: 02e8 dfbb 0029 d33c 6bfb 733d a4b1 cbbc
00000030: 3fc0 65bd 015d d3bc 5f01 b53c 4525 1a3d
00000040: 24e2 1d3d a090 d6bb dcf3 013c 95a7 503d
00000050: 10a6 11bd 5bca 8a3c 502c eebc 9c38 d2bb
00000060: 9abb c9ba d3b7 2a3c da11 223d 49cd c3bc
00000070: 992e 1dbc 6004 bcbc 22f0 1bbc 9d0f 343d
00000080: a38f 6a3d c9de 6f3c 4499 a4bc 7020 f13c
00000090: 09a2 0ebd 3ac6 17bd fc15 1d3d ab3f 61bc
000000a0: dfd2 70bd ecc7 18bd 41cd 04bd e421 713d
000000b0: 73dd 1d3c f271 c5bc 1b66 603c 4001 cd3c
000000c0: 34e1 2c3c d400 d73b 9c0a 92bc 93ef 583d
000000d0: eb6f 5b3d 2218 17bd 2ede ae3c 92c6 3b3d
000000e0: f97b 4ebd 2e2f c8bc f346 2dbd ec66 233d
000000f0: c1c6 723d 3858 53bc 3cd8 36bd 1ce2 063d
0.012107303 0.027772978 -0.033323076 0.01532772 -0.03791987 0.009481612 -0.020077787 -0.02154296
-0.0068330774 0.025776386 0.059565943 -0.02486498 -0.056091543 -0.025801184 0.02209538 0.0376332
0.038545743 -0.0065480024 0.007931676 0.05094107 -0.03555876 0.016942194 -0.029073864 -0.00641544
-0.0015390993 0.010419804 0.039567806 -0.023901599 -0.009593629 -0.022951305 -0.009517701 0.043960202
0.05726589 0.014640518 -0.020092614 0.029434413 -0.034822498 -0.037054278 0.038351044 -0.01374809
-0.058794852 -0.037300035 -0.032422308 0.05887021 0.009635317 -0.024102185 0.013696219 0.02502501
0.0105517395 0.006561378 -0.017827325 0.05296285 0.05357353 -0.03688825 0.021346178 0.04584367
-0.0504112 -0.02443656 -0.04230399 0.039893076 0.059271578 -0.012899451 -0.04463981 0.03293048

weight f4 [64, 32, 2, 2]
00000000: e0f7 543b cb0b 953b 0c0d 31bd d609 04bd
00000010: 3739 813d 9ca4 fd3c 2905 a8bc 759b 3d3a
00000020: e43c 943c c205 a5bc fd5c 8d3d 187d 4d3d
00000030: 8691 8ebd 469a 313d 684d 4d3d c3ea 88bd
00000040: 3c43 0db9 563d a83c b1b8 39bc 9b82 323c
00000050: 7f3d b83c 5d7f 9fbd 2d15 89bd 8c64 083d
00000060: 8f44 483d 5cec 81bd 9e21 763d 4cca 82bc
00000070: 0434 713d 9415 f5bc f46c db3c c325 873d
00000080: e55c 373d 2015 aebd 9457 b6bc 8405 9bbd
00000090: 577c a03c 4087 053b 8810 1a3d 5c1e fdbc
000000a0: 3892 56bc 298b 9d3d 7354 1e3d 4b4f 48bc
000000b0: 9df0 7fbc 399a 12bd 18ec 9b3d 7ea4 12bc
000000c0: d51b 023c e09e 89bd 95e6 933d 13f0 02bd
000000d0: d545 733d 81a1 a1bd 3ce1 54bd 8c48 9b3c
000000e0: 5f00 9dbd 4582 b33d d55a 653d 5571 aa3d
000000f0: ee22 933c 3b88 abbd c5f4 fc3b a038 6abd
00000100: 13a8 703d 8858 8fbd 3eae 83bc 452f 84bd
00000110: fa94 48bd 8233 a23c 6874 62bd 7a72 8b3d
00000120: 7106 9dbd acfe c3bc 821c a7bd 6149 a93d
00000130: a05c 24ba 5970 523d d55c c3bc dbc7 f6bc
00000140: d6ee 463d 1a13 eb3c 0b9e da3b a5d8 9ebd
00000150: a147 59bb d837 33bd f989 973d 8690 283d
00000160: 8d58 7c3c 5151 abbd 296e ae3d b6b5 233c
00000170: 1320 91bd f07a 3fbc 8aa6 703d f88f 0d3c
00000180: 194a 58bd 234d 2cbd c054 b03d 0165 9cbc
00000190: e539 383c 861b a5bd eb07 4f3c 715f 753d
000001a0: a0c0 233d e0c4 a13d e6e6 d13c 1ac9 923d
000001b0: da32 41bd e342 dcbb 925f 19bb adb5 89bd
000001c0: df6d c8bc 74d3 6ebd 913f 633c bc1d 4dbd
000001d0: 282e 113c 6169 5dbd 0fa6 883d 92d6 593d
000001e0: 0843 833d 5b62 3d3d 92ff 8cbd bdb1 75bd
000001f0: 833f 1f3d 6e26 86bd 7d90 723d 057d 163d
00000200: ee15 86bd 55c7 db3c d189 2c3d 012f 633d
00000210: 72b6 9fbd 1797 bbbc 3098 14bc 576a 0abd
00000220: a616 353c 71b8 86bd 3b87 233d c815 3f3d
00000230: 022a 293c 3c68 25bd bc63 9c3c 3cbb 46bb
00000240: 6ecc 84bd f239 ab3d eb16 adbd 0ef5 813d
00000250: bd73 d1bc b938 a03d c1c8 a93d 508e af3c
00000260: 751a a2bc 7578 723d e68f 833d 243f 89bd
00000270: a102 80bd f1ee 9c3d 1b1f 91bc ca9b b0bd
00000280: f5d7 60bd c64a c8bc bd0d abbd 39c6 08bd
00000290: e6ff f33c 1593 6cbd f0e3 74bc 80ef b53c
000002a0: 5b8c a73d f379 2bbd fd3e 693d e38b 89bc
000002b0: b87e 353d 55aa 9c3d 3b10 91bd 2ec2 a53d
000002c0: 52b6 4fbd beec 9ebd 2719 13bd a2bf b3bc
000002d0: 9d72 363c 63f5 f4bc 818c b5bd 691c b43c
000002e0: 3b70 84bd 9f90 97bc ece7 383d 08cc 633c
000002f0: 9f6f eabc e44d 89bd 3721 b23d 503d 83bd
00000300: 6ba9 073c f1ff 703d d666 9abc bbb0 15bd
00000310: 84ad ae3d 1bb6 9cbd e0aa b5bc bbfc 8bbd
00000320: 2e0d 85bd f858 a73d 8955 7abd c543 893d
00000330: 56ae 67bd ebe2 a73d cafb 95bd 7a98 b4bc
00000340: 6397 8e3d ea97 a2bd ba1a 19bb 0549 033d
00000350: 37e5 1e3d f16b 28bc 4a0f 44bd 262a 61ba
00000360: c238 2e3d 31fe 16bd 946e 5c3c f68e 72bd
00000370: 4d7f 853d 1c87 8d3c b94e 3bbd bf16 b23d
00000380: 1234 3d3d d975 8cbd 3917 e13c 013d 69bd
00000390: 705f 9d3d be3a 85bd 73ed a13d f959 313d
000003a0: b7b5 65bc 9844 b23d cb18 26bd fa52 87bb
000003b0: 3a4e c73c 94af 553d 715d 8d3d 4fd9 a6bd
000003c0: 0cb1 a93c 4618 823d cb86 e9bc 9d15 bc3c
000003d0: f401 b739 10fb d0bb aca1 f7bb 6cc5 a7bd
000003e0: 0ddf 6abd 75d4 7e3d 97d3 ab3d b799 57bc
000003f0: 0eb1 913d f4f0 50bd 3b31 943d 5707 433d
0.0032496378 0.004548525 -0.043225333 -0.032235943 0.06309741 0.03096228 -0.020510273 0.0007232943
0.018095441 -0.020144347 0.06902502 0.050168127 -0.0696135 0.043360017 0.05012265 -0.06685402
-0.00013471855 0.02053706 -0.011335538 0.010895397 0.022490261 -0.077879645 -0.06693492 0.033299014
0.048893508 -0.0634391 0.060090654 -0.015965603 0.058887497 -0.029917516 0.026785351 0.06598999
0.044766326 -0.08500123 -0.022258557 -0.075694114 0.01959054 0.0020374805 0.03761342 -0.030898266
-0.013096385 0.07692558 0.038654756 -0.012225936 -0.0156213315 -0.03579161 0.07613391 -0.008950351
0.007941206 -0.06719756 0.072217144 -0.031967234 0.05939277 -0.078921326 -0.051972613 0.018955491
-0.076660864 0.08765081 0.055994827 0.083223976 0.017960992 -0.08375593 0.0077196085 -0.057182908
0.058754038 -0.06999308 -0.016074296 -0.064543284 -0.0489702 0.019799951 -0.055286795 0.06808944
-0.07667244 -0.023925148 -0.08159734 0.08265949 -0.0006269906 0.051376674 -0.023847977 -0.030124595
0.048567615 0.028695632 0.006671672 -0.077561654 -0.0033154266 -0.04375443 0.07399363 0.041153453
0.0154019715 -0.08365119 0.08517105 0.009992054 -0.07086196 -0.011687025 0.058752574 0.008640282
-0.05280504 -0.04206575 0.08609915 -0.019091131 0.011244272 -0.0806189 0.012636165 0.059905473
0.039978623 0.07898879 0.025622796 0.07167263 -0.047167636 -0.0067218407 -0.0023402912 -0.06724105
-0.024466453 -0.058307126 0.013870136 -0.050077185 0.008861102 -0.054055575 0.06672298 0.053183146
0.064092696 0.046236377 -0.06884684 -0.059983958 0.03887893 -0.06550299 0.059219826 0.03674032
-0.065471515 0.026828447 0.04212362 0.05546475 -0.077984706 -0.022899194 -0.009069487 -0.03379282
0.011052763 -0.06578148 0.039923888 0.04665163 0.010324957 -0.04038261 0.019090526 -0.0030324003
-0.06484304 0.083606616 -0.08451637 0.063455686 -0.025567884 0.07823319 0.08290244 0.021430165
-0.019788006 0.059196908 0.06423931 -0.06701496 -0.062505014 0.07662762 -0.017715028 -0.086234644
-0.054893453 -0.024449717 -0.0835223 -0.033392165 0.029785108 -0.057757456 -0.014946923 0.022208929
0.081810676 -0.041864347 0.056944836 -0.016790336 0.0443103 0.07649676 -0.07083174 0.080936775
-0.050710984 -0.07759999 -0.03591266 -0.021941964 0.011135724 -0.029902166 -0.088646896 0.021986203
-0.06466719 -0.018501578 0.045143053 0.013903625 -0.028617678 -0.067043096 0.086977415 -0.06408179
0.0082801385 0.058837835 -0.018847864 -0.036545496 0.08529189 -0.07651921 -0.022176206 -0.06835314
-0.064966545 0.08171266 -0.06111673 0.06702379 -0.056562744 0.08197578 -0.073234156 -0.022045363
0.069624685 -0.079391316 -0.0023361878 0.03205206 0.038792815 -0.0102796415 -0.047866143 -0.00085893495
0.042534597 -0.03686351 0.013454098 -0.05921837 0.06518421 0.01727634 -0.045729373 0.08695745
0.046192236 -0.06858415 0.027476894 -0.056942943 0.07684219 -0.06505345 0.07906618 0.043298695
-0.014020375 0.087044895 -0.04055099 -0.0041297646 0.024329294 0.052169397 0.06902588 -0.08146917
0.020714305 0.06352286 -0.028506657 0.022959525 0.00034905935 -0.006377585 -0.0075571146 -0.08191952
-0.057341624 0.062214334 0.08389967 -0.013159207 0.071138486 -0.05101104 0.072359525 0.04761442

bias f4 [32]
00000000: db73 8abd 38fa cdbb e96e 5f3d 821b 05bd
00000010: 9777 93bd d710 84bb 8d29 7e3d 4401 5f3c
00000020: 9667 be3c 7701 56bd 9115 22bd 0e98 223c
00000030: a37b a03d aa6b 2d3d 189c 303d 958c b43b
00000040: f4cb 8c3d baf8 803d b8e1 a43d 46d9 2c3c
00000050: 3218 31bc d37a 5ebd 7c5b 9abd 4482 e3bc
00000060: 83d5 bc3c 0ac6 c9ba 6f75 2bbd 2f68 673d
00000070: 8a6e aa3d 4069 98bd 2579 e4bb cf05 643d
-0.06760379 -0.006285932 0.05454913 -0.032496937 -0.07200544 -0.004030328 0.062051345 0.013611142
0.023242753 -0.05224749 -0.03957135 0.009923948 0.07836082 0.042339005 0.043117613 0.0055099227
0.068748385 0.06297441 0.08050865 0.010549849 -0.010808991 -0.054316353 -0.075369805 -0.027772076
0.02305103 -0.0015394103 -0.04186004 0.05649584 0.08321865 -0.0744195 -0.0069724494 0.055669602

weight f4 [32, 16, 2, 2]
00000000: d3a0 90bc 65c0 cabd 5e35 413d 6740 893d
00000010: 1c7c a3bd d887 d9bd 4a0f 983d 3228 f2bd
00000020: df6b 403d 1882 e43d b687 b43d a864 f1b9
00000030: f104 33bd 268d 253d 1402 34bd d66d 97bd
00000040: b232 71bd 71b8 4ebd ce37 343d e140 d23d
00000050: 0fc0 5f3c e1eb b5bd b0dd f53c 286b bd3d
00000060: 28b3 903d d237 cebc f8cb 52bc 6e07 d6bd
00000070: 64a3 8e3c b768 4c3d 3726 003d f986 213d
00000080: 2a4c 023d 89b2 a5bb a100 25bd 4045 74bd
00000090: aaa0 bfbc ac14 903d 9eb8 9ebd ab66 f2bd
000000a0: c31f b7bc 7406 61bd 45c5 e1bd ca32 a3bd
000000b0: f125 a7bc 1611 87bd ed6c b03d 256d a7bc
000000c0: 11c2 e2bc 91a4 a43d b8bd e4bd 0f03 223d
000000d0: 4bf4 9bbc e6fe e33d aad5 773c 28cb 44bd
000000e0: 684c b3bd 84e3 a8bd 68a6 6bbd 7489 e73d
000000f0: ad86 c33d b37f f33d d86b 3cbd 6ab9 2c3d
00000100: b63c b2bd 1d82 13bd 6c53 de3d 6a93 b6bd
00000110: 50c3 febd b9ea 10ba d0cb d63c 1b81 c73d
00000120: e56a 3e3d ba07 b53c d98a fd3d 05ec cf3d
00000130: ab93 88bd 85a9 e8bd 57c2 e4bd f483 e73c
00000140: 0ac2 103d 119a 04bd fd80 ba3d 848f d43c
00000150: 79dd 883c 258c 93bc 21bc 973d c2b8 253d
00000160: f83f b5bd 8c4e 02bd fbee 653d 6b8e 353d
00000170: 1321 d3bc b5ee f43d 5cf4 ce3d e851 6ebd
00000180: f3d6 c53d 0920 bc3d 3ea9 ae3d 411a 28bd
00000190: b325 793d 4e50 8ebd 0cf6 8c3d a2e6 2339
000001a0: a028 8b3d 3864 a13d e042 243d f066 1a3d
000001b0: eb6e 75bd 774b c3bd f624 c1bd 7714 c4bc
000001c0: 5603 cdbd 11c0 10bd 0750 b5bb cc24 f1bd
000001d0: 5569 f33d 47ab 383c d977 9f3d 158e d6bd
000001e0: 38db 9f3d f24c 92bd a526 fd3c 104e bf3d
000001f0: cf38 d23d f7b2 f0bd cb6e 45bd ad4e 5cbd
00000200: 952a 443d 92a2 8cbd 2af6 af3d 9ca6 babd
00000210: 435b f0ba c3c9 353c a006 a9bd f56f 03bc
00000220: 535a cdbd 97e6 91bd 8123 febd 66d1 0d3d
00000230: e7d7 2abd e6ba 94bc 488a 653d 2e14 923d
00000240: 4692 753d 7f64 e23c 1eb5 f13d 3cd9 afbc
00000250: c5d2 dc3d f0f0 8dbd 6ae0 f6bd 06fb 6d3b
00000260: c404 57bd 9e9c 9ebd f61d 8dbd d21b 70bc
00000270: 73ed 143c 586e c1bb 6f33 01bd d6ff ce3d
00000280: e3e1 8e3d 3d43 86bd b40e b5bd b96e f23b
00000290: 28e7 613d 440c ca3d 9270 a23d 4981 b93d
000002a0: eab8 213c 35e1 bcbd 6da4 9a3d 3319 063d
000002b0: ba18 a33d ef91 85bd d132 eebd 09f2 6c3d
000002c0: d9b4 02bd 944e 8dbd 2c8d f83d 172c 493d
000002d0: e03b d33d 4a58 d43d 884a c1bd fedb e83d
000002e0: 40b0 e13d 4d0f ccbd a283 2c3c 22ac a63d
000002f0: c92c 3e3d 983a 9dbd 61e2 98bd 1c8b a4bd
00000300: 6bb3 753d 2782 c5bd 8cf5 a93c 9089 88bd
00000310: e28b 83bd 385a df3d 3c60 c4bd 780f d63b
00000320: 316e b53d c045 95bd 0b11 24bd 93d1 06bd
00000330: fca9 ed3d 11d2 303d 7440 8e3d 7672 81bd
00000340: ae7f fcbd 05d2 9e3d 4a0b 983d 88be b43d
00000350: 095e 533d 6757 3a3d a501 233d 9c5a 66bd
00000360: b156 03bd 3e65 003e 73d0 d03b b81b a83b
00000370: 7582 b3bd 77b4 d13d ce4d 1cbc 58f7 8f3c
00000380: ee61 cdba f39e b23d 9f5e f03d 095b ef3d
00000390: 76df 9ebd 3bce ffbc d0ea 55bd 87bc 683d
000003a0: ca8d 583d 4b32 f9bd 4dc1 d3bd 16b7 05bd
000003b0: c96c 35bc beb2 b23d a28b 0b3d 392b b33d
000003c0: 31cd c2bd a18e da3d c58f e03d ffd5 903d
000003d0: d0cb 2f3c c4d3 f63d c0cb 88bb 706d 6bbc
000003e0: b198 86bc 040d 1f3d 0eb1 373d e922 d63d
000003f0: 909c af3d d711 723d 7cae 043d 27ee 0d3d
-0.017654812 -0.098999776 0.047170036 0.06701737 -0.07982656 -0.10621613 0.07424791 -0.11824073
0.046977874 0.11157626 0.08814947 -0.00046042097 -0.043705884 0.040417813 -0.043947294 -0.073939964
-0.058886237 -0.050468866 0.043998532 0.10266281 0.01365663 -0.08882881 0.030012935 0.09248954
0.07065421 -0.025173102 -0.012866013 -0.10450636 0.017411895 0.04990455 0.031286445 0.03943536
0.031810917 -0.0050566834 -0.040283803 -0.059636354 -0.02339204 0.07035193 -0.07750057 -0.118359886
-0.022354012 -0.054937795 -0.11023954 -0.079686716 -0.020403834 -0.06595056 0.08614526 -0.020437786
-0.027680429 0.08039201 -0.111689985 0.0395537 -0.019037386 0.111326024 0.015126625 -0.048045307
-0.08754808 -0.0824652 -0.057531744 0.11305514 0.09547172 0.11889591 -0.046001285 0.042169012
-0.08702986 -0.036012758 0.10855755 -0.08914836 -0.12439597 -0.00055281405 0.026220232 0.09741422
0.04648866 0.02209841 0.12379999 0.10152439 -0.066687904 -0.11360458 -0.1116988 0.028261162
0.0353413 -0.03237349 0.09106634 0.02594734 0.016707169 -0.018011162 0.074089296 0.040459402
-0.08850092 -0.03181319 0.056136113 0.044325273 -0.025772607 0.11959592 0.101052016 -0.05818358
0.09660139 0.09185798 0.08528374 -0.041040663 0.06082697 -0.06948911 0.06882867 0.00015630809
0.06794858 0.07880443 0.04010284 0.037695825 -0.059920233 -0.09535878 -0.09430878 -0.02393554
-0.10010402 -0.03533942 -0.0055332216 -0.117745966 0.11885325 0.011271304 0.07786531 -0.10476319
0.078054845 -0.071435824 0.030902216 0.09341061 0.10264742 -0.11752885 -0.048201364 -0.05378597
0.047892172 -0.06866945 0.08591874 -0.091138095 -0.0018337745 0.011095467 -0.08253217 -0.008022298
-0.100269936 -0.0712406 -0.124091156 0.034623526 -0.041709807 -0.018155526 0.05604008 0.07132755
0.05995395 0.02763581 0.118021235 -0.02146589 0.107823886 -0.06930721 -0.12054522 0.0036312952
-0.05249478 -0.07744716 -0.0689048 -0.01465507 0.009089815 -0.0059030466 -0.03154319 0.101073906
0.06976678 -0.065557934 -0.08840695 0.007398453 0.05515209 0.09865621 0.07931627 0.09057862
0.009870747 -0.09222642 0.07550893 0.032738876 0.079637006 -0.06521975 -0.11630786 0.05784801
-0.03191075 -0.06899753 0.121363014 0.049114313 0.103141546 0.10368402 -0.09438044 0.11370085
0.11019945 -0.09963856 0.010529431 0.081383005 0.04642943 -0.076771915 -0.07465053 -0.080343455
0.05998556 -0.09643965 0.020746969 -0.06666863 -0.06423165 0.1090588 -0.09588668 0.0065326057
0.08858908 -0.072886944 -0.040055316 -0.03291471 0.116046876 0.043169085 0.06945887 -0.0632066
-0.123290405 0.07754902 0.07424028 0.088254035 0.05160335 0.04549351 0.03979649 -0.056238756
-0.032065097 0.12538621 0.0063725053 0.0051302575 -0.08765117 0.10239499 -0.009540034 0.017573997
-0.0015669444 0.087217234 0.117367975 0.116872855 -0.077574655 -0.031226268 -0.052225888 0.05682042
0.052869596 -0.12167796 -0.103396036 -0.032645307 -0.0110733 0.087254986 0.03406871 0.087484784
-0.095117934 0.106717356 0.10964922 0.070720665 0.010729745 0.1205211 -0.0041746795 -0.014369354
-0.01643023 0.038830772 0.044846587 0.10455877 0.08574784 0.059099045 0.032392964 0.034650948

bias f4 [16]
00000000: 8454 9e3d 5745 b5bd 0aba ab3d 7ca8 b43d
00000010: ca53 a6bc 27f5 4ebd 3330 483d d924 d5bb
00000020: cc2f a0bd 6a5f 93bd e8e8 843d 2043 d13d
00000030: 1d6f 643c a63e cb3d 6f8d fcbd 5597 a3bd
0.07730964 -0.08851116 0.083850935 0.08821198 -0.020303626 -0.050526764 0.04887409 -0.0065046367
-0.078216165 -0.07195933 0.06489736 0.10217881 0.013942507 0.099240586 -0.12331664 -0.07987849

weight f4 [4, 16, 1, 1]
00000000: 71a0 643e 1d31 923d ea18 ba3d d115 593b
00000010: d401 72be df56 7c3e 1f31 04be 1322 693e
00000020: 8de5 383e 8c01 12bc 65ad 1f3e 1698 9fbd
00000030: c161 04be b27f 80be 2d97 2cbe edac 11bc
00000040: 7bb0 38be 77ed b6bd 26e5 ce3d d375 73be
00000050: 159a 8e3d d118 053e 8ba4 2cbe cd75 13be
00000060: 253e 063e f203 ebbd 5b2e 3a3e 06cf 86bc
00000070: 36a3 f5bd 277a 4ebe af8b cc3d b95d 133e
00000080: 1352 243e a86d d33d 15fc 3d3d bbae 6a3e
00000090: 963f 98bd e595 1e3e 5741 5f3e b4fd 803a
000000a0: 2360 a23d 99fa cfbb 8171 133e 8f05 543e
000000b0: e276 de3d f58f 09be 6b0d a03d 2783 7dbe
000000c0: cc74 0abc 3b28 833d e528 273d 47f8 6dbe
000000d0: 437b 073d 3d29 02be 5957 6cbe edeb 413e
000000e0: 184b 1f3c 5bf1 7abe 1316 6bbd 1540 5bbe
000000f0: f51a 25be 55d9 48be f17c 693d 64d7 deba
0.22326829 0.07138274 0.09086783 0.0033124576 -0.2363351 0.24642514 -0.12909363 0.22766905
0.18056317 -0.008911502 0.15593489 -0.0779268 -0.12927915 -0.25097424 -0.16854544 -0.008891326
-0.18036072 -0.089320116 0.101023 -0.23775415 0.069629826 0.12997748 -0.16859643 -0.14400406
0.13109644 -0.11475362 0.18181746 -0.016456138 -0.11994021 -0.20163785 0.0998758 0.14391221
0.16046934 0.1032365 0.046382982 0.22918217 -0.07434003 0.15486868 0.21802269 0.0009841234
0.07928493 -0.0063470122 0.14398767 0.20705245 0.10862519 -0.13433821 0.07815059 -0.24757062
-0.008450698 0.06404158 0.040810484 -0.23239242 0.033076536 -0.12711044 -0.23080195 0.18937655
0.009722494 -0.24506132 -0.0573941 -0.21411164 -0.16123565 -0.19614156 0.05700392 -0.0017001447

bias f4 [4]
00000000: 46d6 86bd e60e 9c3d f36c 0cbe 3ee7 abbd
-0.06583838 0.07620029 -0.13713436 -0.08393715
