code/model_scripted.pt (torch, 157194 bytes, 12 tensors)

weight f4 [16, 1, 3, 3]
0	0x3d105f70	0.035247266
1	0x3e877cee	0.264625
2	0xbe83072b	-0.25591406
3	0xbe6ade01	-0.2293625
4	0xbdb73a56	-0.089466736
5	0x3e1cb6ce	0.1530411
6	0x3d28b1b4	0.041185096
7	0x3eb826d3	0.3596712
8	0x3c62f58b	0.013852487
9	0xbc59abcd	-0.013285589
10	0xbe8a35bd	-0.26994124
11	0xbe659ba1	-0.22422649
12	0xbf0358e1	-0.51307493
13	0xbeca6d82	-0.39536673
14	0xbea737be	-0.32659715
15	0x3e7e5990	0.24838853
16	0x3e9484c0	0.2900753
17	0x3eace8f0	0.33771467
18	0xbe82ec6f	-0.2557101
19	0xbe2eebdb	-0.17082159
20	0x3dae46b3	0.085095786
21	0x3e666fc2	0.2250357
22	0xbdb89796	-0.09013288
23	0x3e596c04	0.21232611
24	0xbd9fb48f	-0.07798111
25	0x3c3d4843	0.011552873
26	0x3e84f773	0.2597004
27	0xbed86ba7	-0.42269632
28	0xbe96f621	-0.29484656
29	0xbe232822	-0.15933278
30	0xbea48607	-0.32133505
31	0x3dee6cd8	0.11641854
32	0xbeaf1ea8	-0.34203076
33	0xbea4f15a	-0.32215387
34	0xbeac56c4	-0.33659947
35	0xbec5e2bb	-0.38649544
36	0xbe4973a8	-0.19673026
37	0x3eb2e093	0.34936962
38	0x3e41370f	0.1886866
39	0x3e49f004	0.19720465
40	0x3d186806	0.03720858
41	0xbe11d154	-0.14240009
42	0x3dc5f8bc	0.09666583
43	0xbe91b93f	-0.28461644
44	0xbe4ade34	-0.19811326
45	0xbdfa772a	-0.1222976
46	0x3e599b99	0.21250762
47	0x3e5846d0	0.21120763
48	0xbdbd286e	-0.09236227
49	0x3d55e3fc	0.052219376
50	0x3e69697e	0.22794148
51	0x3e8f613c	0.2800387
52	0x3e10ae5d	0.14129014
53	0x3d9040e5	0.07043628
54	0x3eb78558	0.3584392
55	0xbe171227	-0.14753018
56	0x3e2703b0	0.1631
57	0xbe6ef908	-0.23337185
58	0xbe4079e8	-0.18796504
59	0xbddbe9d4	-0.107379586
60	0x3e83e0ec	0.2575754
61	0x3e7a18b3	0.24423485
62	0xbe07f9e7	-0.13278924
63	0x3e0ccdc3	0.13750367
64	0x3e571984	0.21005827
65	0xbd17bc95	-0.03704508
66	0x3d23cf0e	0.039992385
67	0x3db12945	0.0865045
68	0x3e59d764	0.21273571
69	0x3eadae01	0.33921817
70	0xbe8cab4b	-0.27474436
71	0xbe12674c	-0.14297217
72	0x3d9f222c	0.0777019
73	0x3e82a024	0.25512803
74	0x3e9fdc71	0.3122287
75	0x3e9a2839	0.30108812
76	0x3d0883c2	0.03332878
77	0xbeb60b32	-0.35555416
78	0xbb4aac4e	-0.0030925456
79	0xbe80fd7b	-0.2519339
80	0xbeb40b45	-0.35164848
81	0x3e881934	0.26581728
82	0x3e701d9d	0.23448797
83	0xbea76433	-0.32693633
84	0x3d2225b4	0.039586738
85	0xbd8ecb63	-0.06972387
86	0xbd4b9133	-0.04969902
87	0xbe1ff44c	-0.15620536
88	0x3e035573	0.12825565
89	0xbe43d2c3	-0.19123368
90	0x3d983472	0.07431878
91	0x3e07447f	0.13209723
92	0x3e520f37	0.20513617
93	0x3da56801	0.08076478
94	0xbeba0e1a	-0.36338884
95	0xbe7473bf	-0.23872279
96	0x3e0e1b8f	0.138777
97	0x3d95984a	0.073044375
98	0xbe84e674	-0.25957072
99	0xbc33832c	-0.010956567
100	0x3ee746ab	0.45171103
101	0x3eae64fe	0.34061426
102	0xbedcfc50	-0.4316125
103	0xbeba0e50	-0.36339045
104	0xbf1b6ec8	-0.60715914
105	0xbe861d29	-0.26194122
106	0xbf05d494	-0.52277493
107	0xbf078b51	-0.52946955
108	0xbccd377e	-0.025050875
109	0x3d43b578	0.047780484
110	0xbdfd3fae	-0.123656616
111	0x3e4b201a	0.19836465
112	0xbe361c84	-0.17784315
113	0x3e9c8416	0.30569524
114	0x3e6d0036	0.23144612
115	0xbe7ad612	-0.24495724
116	0xbd5d7f65	-0.05407657
117	0x3e3fc51e	0.18727538
118	0x3dac5111	0.084139
119	0x3d7192a2	0.05897773
120	0x3e89b181	0.26893237
121	0x3d612ea6	0.054976128
122	0xbe31e6f3	-0.17373256
123	0x3e923f9b	0.28564152
124	0xbe93f1aa	-0.28895313
125	0xbe776b48	-0.24162018
126	0xbe2717cf	-0.16317676
127	0xbe71dc62	-0.23619226
128	0x3e279b13	0.1636775
129	0xbec432c4	-0.3831998
130	0xbda3771a	-0.07981701
131	0x3e6f2779	0.23354901
132	0xbe998c91	-0.29990056
133	0xbccdd51b	-0.02512603
134	0x3eb4e45a	0.35330468
135	0x3cb20524	0.021730967
136	0x3d791d76	0.06081911
137	0x3cdb5dd3	0.026778137
138	0x3de46ba8	0.11153346
139	0x3e81471d	0.25249568
140	0x3eae79d9	0.34077337
141	0x3e7a2401	0.24427797
142	0x3eaf6055	0.34253183
143	0x3d26777f	0.040641304

bias f4 [16]
0	0xbe4b6c5d	-0.19865556
1	0x3dad18ff	0.08452033
2	0x3e561eac	0.20910138
3	0x3e2d7130	0.16937709
4	0xbdb91a91	-0.0903827
5	0xbeadc0f6	-0.3393628
6	0xbe148c2f	-0.14506601
7	0xbe9621be	-0.29322618
8	0xba972d62	-0.0011533911
9	0x3e6bda49	0.23032488
10	0x3e46b437	0.19404684
11	0x3e095914	0.13412887
12	0x3e71856f	0.23586057
13	0xbdb583f8	-0.08863062
14	0x3dc33057	0.095307045
15	0xbe021ea0	-0.12706995

weight f4 [32, 16, 3, 3]
0	0xbe32fd8c	-0.17479533
1	0xbe52ff9a	-0.20605317
2	0xbe6cfcb9	-0.23143281
3	0xbe4dfc54	-0.20115787
4	0xbe39cda2	-0.18144849
5	0xbe1f423d	-0.15552612
6	0xbe088a4e	-0.13334009
7	0xbde83928	-0.11339027
8	0xbe3f5546	-0.18684873
9	0x3dd2ae3a	0.10287137
10	0x3e388a19	0.1802143
11	0x3e162c77	0.146654
12	0xbc5dae1c	-0.01353028
13	0xbceba710	-0.028766185
14	0xbde768f0	-0.11299312
15	0xbe5065ed	-0.20351382
16	0xbe5c4956	-0.2151235
17	0xbe1f0274	-0.1552828
18	0x3d6fcab7	0.058542933
19	0xbd903ca5	-0.07042817
20	0x3b8a7081	0.0042248373
21	0xbc871566	-0.016489696
22	0x3d6a2f96	0.057174288
23	0x3c9973a8	0.018731907
24	0x3d0d3f9b	0.034484487
25	0x3ccb08b4	0.024784423
26	0xbcd1094b	-0.025517127
27	0x3dfca681	0.123364456
28	0x3d8fc843	0.07020619
29	0x3e2ea76b	0.17056052
30	0x3e477e49	0.19481768
31	0x3e4810ff	0.19537733
32	0x3d9194f8	0.07108492
33	0x3e09a933	0.1344345
34	0x3dac1d5e	0.08404039
35	0x3dc8bfae	0.09802185
36	0xbd2b759d	-0.04186021
37	0xbc660127	-0.014038361
38	0xbda9c918	-0.08290309
39	0xbd7fc105	-0.062439937
40	0xbd803ae7	-0.06261235
41	0x3ca54911	0.020176442
42	0xbddfb439	-0.109230466
43	0xbdee8b75	-0.11647693
44	0xbde8b7f1	-0.11363209
45	0x3e3cffcc	0.18456954
46	0x3d614eff	0.055006977
47	0x3e148f9b	0.14507906
48	0x3e066fd9	0.13128604
49	0x3d83b660	0.0643127
50	0x3d472e37	0.04862806
51	0x3db7f3ad	0.08982024
52	0x3d856846	0.06514029
53	0x3cbb77c1	0.022884252
54	0xbe28b5e5	-0.16475637
55	0xbe53e6e6	-0.2069355
56	0xbe8f9add	-0.2804784
57	0xbe45c381	-0.1931286
58	0xbe356de3	-0.177177
59	0xbe8b1de5	-0.27171245
60	0xbe19eb69	-0.15031208
61	0xbe1c9a8f	-0.15293334
62	0xbe394c72	-0.18095568
63	0x3e10fd26	0.14159068
64	0xbd012a03	-0.031534206
65	0x3d3cf44c	0.046131417
66	0x3d35d504	0.0443926
67	0xbd3e5c04	-0.04647447
68	0xbd95ba0a	-0.07310875
69	0x3d4dfc0a	0.05028919
70	0xbd392fc2	-0.04521156
71	0xbca61cf3	-0.020277476
72	0x3cfac73d	0.030612582
73	0x3d884d69	0.0665539
74	0x3d282780	0.041053295
75	0xbd7a29d4	-0.061075047
76	0x3cb9e7e9	0.022693591
77	0xbd2447d3	-0.04010756
78	0xbcfaea9b	-0.030629447
79	0x3bd43256	0.006475727
80	0x3b982a9d	0.004643752
81	0x3d6d55ff	0.05794334
82	0xbcc9116e	-0.024544444
83	0xb87127a4	-5.7495796e-05
84	0x3d18ad58	0.03727469
85	0xbda13655	-0.07871691
86	0x3d81ccd9	0.063379
87	0xbd85a938	-0.065264165
88	0x3b769c57	0.0037629807
89	0xbc0f5abd	-0.008749661
90	0xbd9238a4	-0.071397096
91	0xbc4e61a8	-0.012596525
92	0x3d43e4fc	0.0478258
93	0xbd51c35b	-0.051211696
94	0xbd8271e7	-0.063693814
95	0xbd01933d	-0.031634558
96	0xbdca5b1e	-0.098806605
97	0x3ca0c5bf	0.019625543
98	0xbd42259f	-0.04739916
99	0xbe73274f	-0.23745464
100	0xbe896534	-0.26835024
101	0xbe3b5ae9	-0.18296398
102	0xbe16c90d	-0.14725132
103	0xbde8b3b8	-0.11362404
104	0xbd77ba23	-0.06048025
105	0x3dcfb2b7	0.10141509
106	0x3dc1bcc2	0.09459831
107	0x3dee5f53	0.116392754
108	0x3d82b031	0.06381262
109	0x3c830256	0.015992325
110	0xbd26761c	-0.04063998
111	0xbd17baac	-0.03704326
112	0xbd9d46bb	-0.076795064
113	0x3c866aec	0.016408406
114	0xbd486971	-0.04892868
115	0xbd9d9d42	-0.0769601
116	0x3d7f5046	0.062332414
117	0x3de365d9	0.1110341
118	0x3d1fecc4	0.039044157
119	0x3e08b56e	0.1335046
120	0x3e1331a2	0.14374402
121	0xb99bc2ff	-0.00029709187
122	0x3d81ea98	0.06343573
123	0x3e16f57d	0.14742084
124	0x3c91b4c6	0.017786395
125	0x3dd24235	0.10266534
126	0x3bfe408c	0.0077591594
127	0xbd8043ea	-0.062629536
128	0xbdda4662	-0.10657956
129	0x3d8d43c5	0.06897692
130	0xbdc4e1ff	-0.09613418
131	0xbd94a5ac	-0.07258162
132	0x3d7e1ee9	0.062041197
133	0xbda1cbed	-0.07900224
134	0xbdaf35b4	-0.08555165
135	0x3c4baf77	0.012431971
136	0x3dcd2b57	0.10018032
137	0xbccb4a5f	-0.024815736
138	0x3dbdeb55	0.09273402
139	0x3c1c71b1	0.0095485905
140	0xbc9ff1c6	-0.019524466
141	0x3d760984	0.06006767
142	0xbc923208	-0.017846122
143	0x3cdb5264	0.026772685
144	0x3cac01a8	0.020996884
145	0xbe431cc3	-0.1905394
146	0xbd93ed26	-0.07222967
147	0x3c6b66b5	0.014367749
148	0xbe157d5f	-0.14598607
149	0xbe2026c5	-0.1563979
150	0xbc9d6e8f	-0.019217758
151	0xbe407453	-0.18794374
152	0xbe2293ba	-0.15876666
153	0xbe1a5437	-0.15071188
154	0x3d48331a	0.04887686
155	0xbd39c39d	-0.045352567
156	0x3e283ae2	0.16428712
157	0x3e8a50fc	0.2701491
158	0x3e908748	0.2822821
159	0xbe044e37	-0.12920462
160	0x3d4b8ffb	0.049697857
161	0xbe3875bc	-0.18013662
162	0xbd92fefe	-0.07177542
163	0xbb19e8d5	-0.0023484726
164	0x3c83629b	0.01603823
165	0x3d801ace	0.062551126
166	0x3d19ec42	0.03757883
167	0xbd0225d9	-0.031774376
168	0xbbf51786	-0.007479611
169	0xbdae205b	-0.08502265
170	0xbe177acd	-0.14792939
171	0x3d9ddbef	0.07707965
172	0x3e8aedc0	0.27134514
173	0x3e5caf1a	0.21551171
174	0x3df4fcb3	0.11962261
175	0x3e7ecb3d	0.24882217
176	0x3e808827	0.25103876
177	0x3e7f8f1f	0.2495694
178	0x3e90ea0b	0.2830356
179	0x3e6f6220	0.23377275
180	0x3cf50935	0.029911617
181	0xbbf850d3	-0.0075779944
182	0x3df00159	0.11719007
183	0x3d150153	0.036378216
184	0xbde7b18e	-0.11313163
185	0x3d0d136e	0.034442358
186	0x3c84446e	0.016145911
187	0xbd4b2b47	-0.04960182
188	0xbe10c32f	-0.14136957
189	0xbd87a6ea	-0.06623633
190	0xbdf237da	-0.11827059
191	0xbca49cb7	-0.020094259
192	0xbd7a8cb3	-0.061169337
193	0xbc212fbb	-0.00983804
194	0xbcefc428	-0.02926834
195	0xbccd6f6b	-0.025077542
196	0xbdb5c712	-0.0887586
197	0xbcc17f64	-0.023620315
198	0x3cd87507	0.02642299
199	0xbc96650b	-0.018358728
200	0xbddd2403	-0.10797884
201	0xbe241628	-0.16024077
202	0xbe5b5d0e	-0.21422216
203	0xbe4e5071	-0.20147873
204	0x3cac2c89	0.02101733
205	0x3b72ea34	0.0037065865
206	0xbdfa630a	-0.122259215
207	0xbda4adaa	-0.08040936
208	0xbdd6a4ce	-0.10480653
209	0xbd2ac3f6	-0.04169079
210	0xbdd3e6d8	-0.10346764
211	0xbd1372f9	-0.03599832
212	0xbe203051	-0.15643431
213	0xbd3a382f	-0.045463737
214	0xbe0ce58a	-0.13759437
215	0xbdae49fb	-0.085102044
216	0x3d0c16e2	0.03420151
217	0x3d622eba	0.055220343
218	0x3cc6e9dc	0.024281435
219	0x3d936f02	0.071989074
220	0x3db851cb	0.08999976
221	0xbcacd921	-0.021099629
222	0xbcc44aae	-0.023961391
223	0x3c7c601a	0.015403772
224	0xbd82a943	-0.0637994
225	0x3da48d83	0.08034804
226	0x3d499495	0.049213964
227	0x3ce0f1f0	0.027459115
228	0xbc014332	-0.007889556
229	0x3d743fd5	0.059631187
230	0x3b94d80a	0.0045423554
231	0xbd3d9d76	-0.046292745
232	0xbd9f5245	-0.077793635
233	0xbdceb5ac	-0.10093245
234	0xbd64bc48	-0.05584362
235	0x3d9afab5	0.0756735
236	0x3d437c79	0.04772613
237	0x3ccc1cfe	0.024916168
238	0xb941dd87	-0.0001848844
239	0x3d9f32d0	0.077733636
240	0x3d0133e4	0.031543627
241	0xbb44193b	-0.0029922265
242	0xbd9d7da1	-0.076899774
243	0x3bf184fd	0.0073705898
244	0xbb48b91d	-0.0030627914
245	0xbe3521c4	-0.17688662
246	0x3eda848c	0.4267925
247	0x3eee8229	0.4658368
248	0x3eb4d722	0.35320383
249	0xbd6cc12f	-0.05780142
250	0xbdb5fe1d	-0.08886359
251	0xbe2240a4	-0.15844971
252	0x3d817445	0.06321005
253	0x3c39052d	0.011292738
254	0xbdb4c845	-0.08827261
255	0xbcf7b4e1	-0.030237617

bias f4 [32]
0	0x3bbabc72	0.005698734
1	0x3d90db1a	0.0707304
2	0x3d8d56f4	0.069013506
3	0xbca3d137	-0.019997222
4	0x3dc2aeaa	0.09505971
5	0x3d8f8f77	0.070097856
6	0x3d302ebf	0.04301333
7	0x3d3c90af	0.04603642
8	0x3d02edcd	0.031965066
9	0x3df0be77	0.11755078
10	0x3e01bd46	0.12669858
11	0x3da0967a	0.07841201
12	0x3dc5cf1b	0.09658643
13	0x3d8f5624	0.06998852
14	0x3ddd5fdb	0.108092986
15	0xbc572d29	-0.013133326
16	0x3d215b70	0.039393842
17	0x3e083050	0.1329968
18	0x3da5b063	0.08090284
19	0x3da9adf9	0.08285136
20	0x3e075884	0.1321736
21	0x3d3a229c	0.045443162
22	0x3db2397d	0.08702371
23	0x3e1d7f97	0.15380703
24	0x3d7fdf61	0.06246889
25	0x3c71a4c8	0.01474876
26	0x3d836e4a	0.0641752
27	0x3c960c2e	0.018316355
28	0xbc4a9c6e	-0.012366397
29	0x3d8a5bcd	0.06755791
30	0x3ddd67ac	0.108107895
31	0xbc5c8669	-0.01345978

weight f4 [64, 32, 3, 3]
0	0x3e059088	0.13043416
1	0x3d0d0906	0.034432434
2	0x3d9f0958	0.07765454
3	0xbb89675f	-0.004193231
4	0xbdc67fb9	-0.0969233
5	0xbd19ea88	-0.037577182
6	0x3d57fe52	0.052732773
7	0xbd286c10	-0.04111868
8	0x3d5ee975	0.05442186
9	0x3d80665c	0.062695235
10	0xbd54d958	-0.051965088
11	0xbd53fa83	-0.05175258
12	0x3e8c11f9	0.27357462
13	0x3de6b5ef	0.1126517
14	0x3e316ecc	0.17327422
15	0x3e0f4ea6	0.13994846
16	0x3d4f5bdc	0.050624713
17	0x3db24f83	0.08706572
18	0x3d676ca0	0.056500077
19	0x3b4bfbb8	0.0031125378
20	0x3c9e0aed	0.01929232
21	0x3da9a68e	0.08283721
22	0x3d76ce7a	0.060255505
23	0xbb52f3e8	-0.0032188836
24	0xbc57d98c	-0.013174426
25	0x3d0c940f	0.034320887
26	0x3cd2068a	0.025637884
27	0xbc1253c3	-0.008931103
28	0xbca9a83c	-0.020710103
29	0xbcdcf8aa	-0.026974041
30	0xbc42a72c	-0.011880677
31	0x3d568fd0	0.052383244
32	0x3cca1826	0.024669718
33	0xbd969c7d	-0.073540665
34	0xbc1f3e0b	-0.009719382
35	0x3d801652	0.06254257
36	0x3b59fdd9	0.0033262877
37	0xbc03ad9f	-0.008037
38	0x3dd8951f	0.105753176
39	0x3dde03e9	0.108405896
40	0xbcb86b11	-0.02251199
41	0x3cf08a1a	0.029362727
42	0x3d810426	0.062996194
43	0x3e00859e	0.12550971
44	0x3d95d450	0.07315886
45	0x3d010bbd	0.031505335
46	0x3d9d2ce4	0.07674578
47	0x3aa6c33f	0.0012722983
48	0x3cc2c44c	0.023775242
49	0x3be1fcdc	0.0068965983
50	0x3d3d2da7	0.046186116
51	0x3ddc035e	0.1074283
52	0x3dae300d	0.08505259
53	0x3dc74aaf	0.09731042
54	0x3dfe8a6e	0.12428747
55	0x3e3b6a0b	0.18302171
56	0x3e8e4593	0.27787456
57	0x3d52118f	0.051286276
58	0x3d9123f4	0.07086936
59	0x3dea10c1	0.11428977
60	0x3d8479ca	0.06468542
61	0x3e2baa86	0.16764268
62	0x3e914373	0.28371772
63	0xbd3491ed	-0.04408448
64	0xbdbf3615	-0.09336487
65	0xbdb01854	-0.0859839
66	0xbd5748c8	-0.052559644
67	0x3c12bef7	0.008956662
68	0x3ce7285d	0.028217489
69	0x3ceb6bb7	0.028737886
70	0x3ce37886	0.027767431
71	0x3d4c6b18	0.04990682
72	0x3e6aeb18	0.22941244
73	0x3dd7c85c	0.105362624
74	0xbe8a5f1c	-0.27025688
75	0x3e5dcfc2	0.21661285
76	0x3e75d9da	0.24008885
77	0xbe9513b4	-0.29116595
78	0x3d9bfba9	0.0761636
79	0x3e7f7935	0.2494858
80	0xbe45f620	-0.1933217
81	0xbd2fd2b5	-0.042925555
82	0xbc8d8cea	-0.017279107
83	0xbd0c73b3	-0.034290027
84	0x3d96399c	0.07335207
85	0x3da3cd6b	0.07998165
86	0x3a5d246f	0.000843591
87	0x3c00d96e	0.007864339
88	0x3b5d5539	0.003377272
89	0x3d74dd4f	0.05978137
90	0x3d6777c0	0.056510687
91	0x3cc0945c	0.023508243
92	0x3cf4344c	0.029810093
93	0x3df17cd8	0.1179139
94	0x3c3247ac	0.010881346
95	0x3de444aa	0.11145909
96	0x3e0e4427	0.13893186
97	0x3d3fec24	0.04685606
98	0x3dce5f5d	0.10076783
99	0xbce089b5	-0.027409414
100	0x3eaec3c0	0.3413372
101	0x3b94f51e	0.004545822
102	0x3e8d04ae	0.27542633
103	0x3efd8042	0.49511915
104	0x3e9aad6f	0.30210444
105	0xbca7de19	-0.020491647
106	0x3e60c998	0.21951902
107	0x3e05be0f	0.13060783
108	0x3c95ea65	0.018300245
109	0x3ce7e3c1	0.028306844
110	0xbca41837	-0.020031078
111	0xbd13bb13	-0.03606708
112	0x3cbc7d9b	0.023009112
113	0xbc3a56ca	-0.011373231
114	0xbd8f1621	-0.06986643
115	0xbd315387	-0.04329255
116	0xbd0cad64	-0.034345046
117	0xbe4ca7cc	-0.19985884
118	0xbd56d3df	-0.05244815
119	0xbe26aa76	-0.16275963
120	0xbc8ca7ba	-0.017169822
121	0x3ca67417	0.020319028
122	0x3c6bf898	0.014402531
123	0xbdd79882	-0.105271354
124	0x3d5b99da	0.05361352
125	0xbd927c6d	-0.071526386
126	0x3d07fd80	0.03320074
127	0xbcc47ac8	-0.023984328
128	0x3d1fbba8	0.038997322
129	0x3d7c974c	0.061667725
130	0x3d835d50	0.06414282
131	0xbccc68b8	-0.024952278
132	0xbd0c9f64	-0.034331694
133	0x3b865d2f	0.004100464
134	0x3d095ba7	0.033534672
135	0xbd3f065d	-0.046636928
136	0xbc568e0d	-0.013095391
137	0xbc801207	-0.015633596
138	0x3d499f2a	0.049224056
139	0x3d8d8a13	0.06911101
140	0x3d887509	0.06662948
141	0x3dd2106e	0.1025704
142	0x3e37aafa	0.17936316
143	0x3e5ebb60	0.21751165
144	0xbdc2b2f3	-0.09506788
145	0x3c87e814	0.016590156
146	0xbc61bb87	-0.01377762
147	0xbcbd736b	-0.023126325
148	0x3d3a61f6	0.04550358
149	0x3b9b321e	0.004736199
150	0xbda9093a	-0.08253713
151	0xbd5225ba	-0.05130551
152	0xbda8abca	-0.08235891
153	0x3e929ec5	0.28636757
154	0x3e764a7a	0.24051848
155	0x3dd7cc6e	0.10537039
156	0x3e3df4bb	0.18550389
157	0x3e52ad7a	0.20573989
158	0x3e483a72	0.19553545
159	0x3e6e8b04	0.23295218
160	0x3e90ae48	0.28257966
161	0x3e7499be	0.23886773
162	0xbcff6742	-0.031177167
163	0xbc1b7f79	-0.009490841
164	0x3d891941	0.0669427
165	0x3b2ec328	0.0026666615
166	0x3b01a24d	0.0019780577
167	0x3cb1eb15	0.021718541
168	0xb96c14eb	-0.00022514506
169	0x3cd0e2ec	0.02549883
170	0x3d01a9a4	0.031655923
171	0xbd63b6ec	-0.05559437
172	0x3d8b4667	0.068005376
173	0xbd5ea45f	-0.054355975
174	0x3cebd93a	0.028790105
175	0x3c7dde0f	0.015494837
176	0xbaacaaf9	-0.0013173512
177	0x3d218498	0.039433092
178	0xbd370efa	-0.044692017
179	0x3c319985	0.010839825
180	0x3e07efaa	0.13275018
181	0x3e54bdc2	0.20775512
182	0xbd8e2ec6	-0.06942515
183	0x3d9f49be	0.07777737
184	0x3e433c09	0.1906587
185	0xbd9f1bcc	-0.07768974
186	0x3dfffb3f	0.12499093
187	0x3e3b7228	0.18305266
188	0x3d98b8c2	0.07457115
189	0x3da6b5a5	0.08140115
190	0x3dc04739	0.09388585
191	0x3e02fdb5	0.12792094
192	0x3da3b3ab	0.07993253
193	0xbd508254	-0.05090554
194	0x3c9a672c	0.018848024
195	0x3da3fa95	0.08006779
196	0xbd6254b0	-0.055256546
197	0x3c91ad4a	0.017782826
198	0xbd0fe657	-0.03513178
199	0xbd56e6a7	-0.05246606
200	0x3d0fb454	0.035084084
201	0xbd212fb4	-0.039352134
202	0x3c0018bf	0.0078184
203	0x3ca260a1	0.019821467
204	0xbd8d1c41	-0.06890155
205	0x3c481f52	0.012214499
206	0xbc80da4d	-0.015729094
207	0x3df89307	0.12137418
208	0x3e0483a9	0.1294085
209	0x3e4dc7e3	0.20095782
210	0x3e7d4271	0.24732377
211	0x3e6148b4	0.2200039
212	0x3e7880c9	0.24267878
213	0x3e72d969	0.23715748
214	0x3e931769	0.28728798
215	0x3e8f277d	0.27959815
216	0xbd901541	-0.07035304
217	0xbdc6499d	-0.09682009
218	0xbdbe7275	-0.09299175
219	0x3c851f47	0.016250266
220	0xbc5b914f	-0.0134013435
221	0xbd950f63	-0.072783254
222	0x3e08a6fd	0.13344951
223	0xbc47aa28	-0.0121865645
224	0xbd352f46	-0.044234537
225	0xbdce2d97	-0.10067289
226	0xbd16def1	-0.036833707
227	0xbd50fc49	-0.051021848
228	0x3c5cb29a	0.013470316
229	0xbc9b36c0	-0.018947005
230	0xbd80d74a	-0.06291063
231	0xbd46cede	-0.048537128
232	0xbd0796ab	-0.033102673
233	0x3d3771c4	0.04478623
234	0xbd518744	-0.05115439
235	0xbcb6d13e	-0.022316571
236	0x3c889af4	0.01667545
237	0xbd2d0e27	-0.042249825
238	0xbc3a0b78	-0.011355273
239	0x3d98a64e	0.07453595
240	0xbd2de2d8	-0.042452663
241	0xbc2980f9	-0.010345691
242	0x3d52a389	0.05142549
243	0x3d95ac88	0.07308298
244	0x3d8b54b7	0.068032674
245	0xbd255e23	-0.04037298
246	0x3d960733	0.07325592
247	0xbb43e782	-0.0029892628
248	0xbd265621	-0.040609483
249	0x3cad1434	0.021127798
250	0xbd6570db	-0.05601583
251	0x3d0ef1d5	0.034898598
252	0xbd8b7164	-0.06808737
253	0xbdaea2b9	-0.08527131
254	0xbc4329f8	-0.011911862
255	0x3d58147f	0.05275392

bias f4 [64]
0	0x3d94410c	0.07238969
1	0x3dbe181f	0.092819445
2	0x3d30f0bb	0.04319833
3	0x3bf43491	0.0074525555
4	0x3caf49f4	0.021397568
5	0x3d3f9bf4	0.046779588
6	0x3d1a483a	0.037666537
7	0x3d2d35d2	0.042287655
8	0x3d59a34f	0.05313426
9	0x3db1dd41	0.08684779
10	0x3e001c47	0.12510787
11	0x3d0b33ff	0.033985134
12	0x3c1e1da7	0.009650624
13	0xbd59b7d0	-0.053153813
14	0x3c1121c3	0.008858147
15	0x3dc0576a	0.09391673
16	0x3dae4cc3	0.08510735
17	0x3d8393ed	0.06424699
18	0xbb5c979e	-0.0033659707
19	0x3dffd6fc	0.12492177
20	0xbd360be9	-0.044444952
21	0x3d93fc82	0.072258964
22	0x3d40d91f	0.047082063
23	0x3d7fe4e8	0.06247416
24	0x3d83a625	0.06428174
25	0x3d9f8ea1	0.07790876
26	0x3deb8a5f	0.115010016
27	0x3d36b18b	0.044602912
28	0x3d2fe521	0.042943124
29	0x3d2416d2	0.040060826
30	0x3cee55e8	0.029093698
31	0x3d07f699	0.03319416
32	0x3ddf929a	0.10916634
33	0x3db6885b	0.089127265
34	0xbd1d2067	-0.03836098
35	0x3dc3c6e1	0.095594175
36	0x3d099cdb	0.033596855
37	0x3ce9d564	0.028544135
38	0x3dca6ff2	0.09884633
39	0x3d7a10a4	0.061051026
40	0x3a84c083	0.0010128174
41	0x3d19288b	0.03739218
42	0xbd19f6e2	-0.03758896
43	0x3defd4ba	0.11710496
44	0x3ad98ce2	0.0016597772
45	0xbd00b2bf	-0.031420466
46	0x3dc0834a	0.094000414
47	0x3dc2d9b5	0.095141806
48	0x3da0729f	0.07834362
49	0xbca959f7	-0.020672781
50	0x3d987525	0.074442185
51	0x3d3f7736	0.046744548
52	0x3e005f81	0.12536432
53	0x3ce30552	0.027712498
54	0x3ca7c483	0.020479446
55	0x3db3ac9e	0.087731585
56	0xbda68fac	-0.08132872
57	0xbcea2b21	-0.028585019
58	0x3cb528a5	0.022114107
59	0x3d7751df	0.060380813
60	0x3df0f078	0.11764616
61	0xbd167418	-0.03673181
62	0xbd4c95c3	-0.04994751
63	0x3d999f7c	0.07501122

weight f4 [64, 32, 2, 2]
0	0x3da9f90b	0.08299454
1	0x3d889798	0.06669539
2	0x3db97d22	0.0905707
3	0x3d6185f9	0.055059407
4	0x3d571f81	0.05252028
5	0x3c9d073f	0.019168494
6	0x3dcb4e21	0.09927011
7	0xbc154b6b	-0.009112219
8	0x3d5e22f4	0.054232553
9	0x3ab950a2	0.001413841
10	0x3e007804	0.12545782
11	0x3d9853fb	0.07437893
12	0xbd30f3a9	-0.043201122
13	0x3d719852	0.058983155
14	0x3d9edcb6	0.07756941
15	0xbd315113	-0.04329021
16	0xbb4f4ca8	-0.0031631384
17	0x3c974f0f	0.018470315
18	0xbc78b9e1	-0.015181036
19	0xbb9d6e40	-0.0048044026
20	0x3bd43ea0	0.006477192
21	0xbdd3b988	-0.10338122
22	0xbdbaa3fa	-0.09113307
23	0xbc13e9d5	-0.009027918
24	0x3e0131ad	0.12616606
25	0xbbdb2480	-0.0066877007
26	0x3e228134	0.158696
27	0x3d5d7a84	0.054071918
28	0x3d19f6fb	0.037589055
29	0x3cb820fe	0.02247667
30	0x3c023032	0.007946061
31	0x3d3e5c22	0.046474583
32	0x3dab2153	0.083559655
33	0xbdc0121f	-0.09378456
34	0x3cd9166c	0.02649995
35	0xbd9e09a3	-0.07716682
36	0x3cd2ff7c	0.02575659
37	0xbc20d842	-0.009817185
38	0x3c9f8fcd	0.01947775
39	0xbd2eff75	-0.04272409
40	0xbd831724	-0.06400898
41	0x3d734cf9	0.05939958
42	0x3c137e5d	0.009002295
43	0xbd12fbfa	-0.035884835
44	0xbe106fa3	-0.14105086
45	0xbe385d3a	-0.18004313
46	0xbd6aa436	-0.05728551
47	0xbe0b8851	-0.1362622
48	0xbc53a63a	-0.0129180495
49	0xbdabba14	-0.08385101
50	0x3cdd84f5	0.027040938
51	0xbd678160	-0.056519866
52	0x3da2fd6b	0.07958492
53	0xbd9632ed	-0.07333932
54	0x3ccee725	0.025256703
55	0x3d2e6b51	0.042582814
56	0xbd5dbd04	-0.054135337
57	0x3dd19cf9	0.10235018
58	0x3d622288	0.055208713
59	0x3dc26d30	0.09493482
60	0x3d7f8482	0.06238223
61	0xbd0241c5	-0.031801004
62	0x3d984eab	0.0743688
63	0xbcdc6b4a	-0.026906628
64	0x3da2be08	0.07946402
65	0xbd6ca5e2	-0.057775386
66	0x3c31a970	0.01084362
67	0xbd401eff	-0.04690456
68	0x3cf28f01	0.029609205
69	0x3d923547	0.07139068
70	0xbd8ac751	-0.06776298
71	0x3e0ba088	0.13635457
72	0xbd882be8	-0.066489995
73	0xbceca845	-0.02888883
74	0xbdc20e68	-0.09475404
75	0x3da1dcbd	0.079034306
76	0x3d0cb8c2	0.034355886
77	0x3d8b8434	0.06812325
78	0x3cce1a26	0.025158953
79	0xbbcd8955	-0.006272475
80	0x3dbf640d	0.09345255
81	0x3cdcd8ac	0.026958786
82	0x3d257266	0.040392302
83	0xbd0e4fc2	-0.03474403
84	0x3db1bdd4	0.08678785
85	0x3d565e4b	0.05233602
86	0x3e65d34a	0.22443882
87	0x3e060e2b	0.13091342
88	0x3d89b634	0.067242056
89	0xbd494662	-0.049139388
90	0x3e0b5180	0.13605309
91	0x3d171d26	0.036893032
92	0xbde8b90c	-0.1136342
93	0xbd800f55	-0.06252924
94	0x3dfb8ae0	0.12282348
95	0x39a40fcc	0.00031292287
96	0x3d8f5e50	0.070004106
97	0x3d693871	0.056938592
98	0x3d838c31	0.06423224
99	0x3d7d2bc9	0.061809335
100	0x391175c2	0.00013872146
101	0xbdb5e7bb	-0.0888209
102	0xbbf6e7a1	-0.0075349365
103	0xbc27545d	-0.010212985
104	0x3db7be52	0.089718476
105	0x3ddc14b6	0.10746138
106	0x3dc8a60d	0.09797297
107	0x3df165ca	0.11786993
108	0x3bee8910	0.0072795227
109	0x3d1d7098	0.038437456
110	0x3e01f68f	0.12691711
111	0xbb15bb43	-0.0022847212
112	0xbcdf686b	-0.02727147
113	0xbda792b0	-0.08182275
114	0xbcd526c1	-0.026019456
115	0xbd7422fa	-0.05960367
116	0x3d2aa4cf	0.04166108
117	0xbd228dd5	-0.039686043
118	0x3db56956	0.08857982
119	0x3d88282e	0.06648289
120	0xbca1da7d	-0.019757504
121	0x3c4ec955	0.0126212435
122	0xbdca030f	-0.09863865
123	0xbe27e7ee	-0.16397068
124	0x3e0d4630	0.13796306
125	0x3d00e07e	0.031464092
126	0x3e72373f	0.23653887
127	0x3e0b1309	0.1358148
128	0x3b9324e1	0.0044904803
129	0x3da35f47	0.07977157
130	0x3df2fcf7	0.118646555
131	0x3df1667f	0.11787128
132	0xbdb74a3d	-0.08949707
133	0xbd18890b	-0.03724007
134	0xbc405a7c	-0.011740323
135	0xbd4426f4	-0.04788871
136	0x3d501a1a	0.050806142
137	0xbcee3fc3	-0.029083138
138	0x3dac0700	0.08399773
139	0x3da3b8ad	0.079942085
140	0x3d06d5cd	0.03291874
141	0xbbf30cf8	-0.0074173175
142	0x3d26ca3c	0.04072021
143	0x3cae5ac5	0.021283517
144	0xbd95dadd	-0.073171355
145	0x3d9d7245	0.07687811
146	0xbdbc3c0b	-0.0919114
147	0x3d63d641	0.05562425
148	0xbd36b6f5	-0.044608075
149	0x3d611169	0.054948244
150	0x3d77e3c0	0.060519934
151	0x3a1a2db3	0.00058814435
152	0x3d19f24d	0.03758459
153	0x3dd352f5	0.10318557
154	0x3ddee519	0.10883541
155	0xbc82c5b1	-0.015963407
156	0xbda7df9d	-0.08196948
157	0x3dd5bbb6	0.10436194
158	0xbd160153	-0.036622357
159	0xbdd8b35f	-0.10581087
160	0xbdacbb06	-0.084341094
161	0xbd0a4b2d	-0.0337631
162	0xbd9810b5	-0.074250616
163	0xbd8b5d56	-0.06804912
164	0x3d4332ce	0.047655873
165	0xbd24a402	-0.040195473
166	0xbc1c6d42	-0.0095475335
167	0x3cefcc58	0.029272243
168	0x3d85cc7f	0.06533145
169	0xbd7692b6	-0.06019851
170	0x3ce04418	0.02737622
171	0xbcf982ff	-0.030457972
172	0x3c94f2dd	0.018182212
173	0x3d4df185	0.05027916
174	0xbdba4861	-0.090958364
175	0x3d3f3ad9	0.04668698
176	0xbd5451d9	-0.05183587
177	0xbd817933	-0.06321945
178	0xbd11bd36	-0.035580836
179	0xbc9fc54a	-0.019503254
180	0x3d0dea59	0.03464732
181	0xbc76c611	-0.015061871
182	0xbd1ab2f3	-0.037768316
183	0x3d3e4ff1	0.046462957
184	0xbd171557	-0.036885586
185	0x3c8b035c	0.016969375
186	0x3d5163d8	0.05112061
187	0x3d170b3d	0.036875952
188	0x3befbf4d	0.007316506
189	0xbcb06b50	-0.021535546
190	0x3deb2623	0.114818834
191	0xbced2258	-0.02894704
192	0x3d02badf	0.031916495
193	0x3db7292b	0.08943399
194	0x3c7be988	0.015375502
195	0xbc3aa305	-0.011391406
196	0x3d9da57f	0.076975815
197	0xbd7fe95b	-0.062478404
198	0xbd1330d6	-0.035935245
199	0xbd8face9	-0.07015402
200	0xbd43b37b	-0.047778588
201	0x3dcf816c	0.10132107
202	0xbd43a28a	-0.04776243
203	0x3d9f97aa	0.077925995
204	0xbc50baab	-0.012739818
205	0x3df553b9	0.119788595
206	0xbc8f51a3	-0.017494982
207	0x3c18a65f	0.00931701
208	0x3dcbc1d0	0.09949076
209	0xbdb7c9bd	-0.089740254
210	0xbd3dfd88	-0.046384364
211	0x3d70d3f9	0.058795903
212	0x3dd3ffb9	0.103515096
213	0x3d72aea4	0.05924858
214	0x3d05eb5d	0.032695163
215	0x3d66ca44	0.05634524
216	0x3db8dfd4	0.09027067
217	0x3c2fbbdb	0.010725941
218	0x3d6c4777	0.05768534
219	0xbcdeeb64	-0.027211852
220	0x3d3cfd16	0.0461398
221	0xbc185448	-0.009297438
222	0xbd3fc744	-0.046820894
223	0x3d88b211	0.066745885
224	0x3d921385	0.07132629
225	0xbd2e9cde	-0.04263007
226	0x3c0c7719	0.008573317
227	0xbd16261d	-0.03665744
228	0x3d478a26	0.048715733
229	0xbdac13d7	-0.08402222
230	0x3d7970a9	0.060898457
231	0x3cc2e246	0.023789536
232	0x3d0341d9	0.03204522
233	0x3dffff7f	0.12499904
234	0x3c1eecf2	0.009700047
235	0x3d10b622	0.035329945
236	0x3d89358e	0.06699668
237	0x3dcbcc80	0.09951115
238	0x3e12663d	0.14296813
239	0xbd0525fc	-0.032506928
240	0x3d09b4d0	0.0336197
241	0x3d971d87	0.07378679
242	0xbd05d838	-0.032676905
243	0x3d1736e4	0.036917582
244	0x3d352a12	0.044229575
245	0x3d0b2a64	0.033975974
246	0x3ca12e4a	0.019675393
247	0xbd54987f	-0.051903244
248	0xbd9067c6	-0.07051043
249	0x3d1ce446	0.038303636
250	0x3d78fd7c	0.060788617
251	0xbd2a5120	-0.041581273
252	0x3e167513	0.14693098
253	0x3cb897d7	0.02253334
254	0x3e346192	0.17615345
255	0x3de2d15d	0.11075089

bias f4 [32]
0	0xbc7d9926	-0.015478408
1	0xbbc947b7	-0.0061425823
2	0x3ddff8bd	0.10936115
3	0x3ce1fed1	0.027587326
4	0xbda2408c	-0.079224676
5	0xbcbf123a	-0.02332412
6	0x3deac7d1	0.11463893
7	0x3acf6439	0.0015822715
8	0x3d158e29	0.036512528
9	0x3bee4193	0.0072710006
10	0xbd66d3f8	-0.056354493
11	0x3d648327	0.05578914
12	0x3e1e9b0d	0.15488835
13	0x3de5bbd2	0.112174645
14	0x3dd86a38	0.105671346
15	0x3d956ad4	0.072957665
16	0x3e0fff46	0.14062223
17	0x3db9eb53	0.09078088
18	0x3e1726a9	0.14760841
19	0x3db5fadd	0.08885739
20	0x3cf4790c	0.029842876
21	0x3b7f0a78	0.0038916152
22	0xbc18696b	-0.009302477
23	0x3bd12a8a	0.006383245
24	0x3d208d2a	0.039197125
25	0xbc18706e	-0.009304149
26	0x3ca7aac7	0.020467175
27	0x3deb38dd	0.11485455
28	0x3e174f66	0.14776382
29	0xbb8968d3	-0.004193404
30	0x3a8e0cf8	0.0010837605
31	0x3ddc0849	0.10743768

weight f4 [32, 16, 2, 2]
0	0xbd4827a3	-0.048865926
1	0xbde7dfc7	-0.11321979
2	0xbce4834a	-0.027894635
3	0x3d478adb	0.048716407
4	0xbe160fdf	-0.14654492
5	0xbe5ab10c	-0.213566
6	0xbc79dc65	-0.0152503
7	0xbe717915	-0.23581345
8	0x3c2924f3	0.010323751
9	0x3d8d57d0	0.069015145
10	0x3d802d96	0.06258695
11	0xbceb9d70	-0.028761595
12	0xbd8f5cab	-0.07000097
13	0xbc29b816	-0.010358831
14	0xbd89ba1f	-0.06724953
15	0xbdc2068f	-0.09473907
16	0x3d80a137	0.06280749
17	0x3daccb48	0.0843721
18	0x3e03d7f1	0.12875344
19	0x3e502d2a	0.20329729
20	0xbc662b82	-0.014048459
21	0xbdf817d2	-0.12113918
22	0x3c135a3d	0.008993682
23	0x3d6ee2fc	0.058321938
24	0x3d6a433c	0.057193026
25	0xbd40e8d7	-0.047097053
26	0xbd183ab3	-0.037165355
27	0xbddaad70	-0.10677612
28	0xbcbe0560	-0.023195922
29	0xbcb8de31	-0.022566887
30	0x3cf93180	0.030419111
31	0x3d201b86	0.03908875
32	0x3be0f7be	0.0068654707
33	0xbd1ae032	-0.037811466
34	0xbd8b4ff5	-0.0680236
35	0xbdc9c5d1	-0.098521836
36	0xbd680119	-0.05664167
37	0x3cd97899	0.026546763
38	0xbcc2fc51	-0.023801954
39	0xbe030a8a	-0.12796989
40	0xbd58c99f	-0.052926656
41	0xbd9f930f	-0.07791721
42	0xbe0b5cde	-0.13609645
43	0xbde1f4a0	-0.11032987
44	0xbd4486e2	-0.047980197
45	0xbd8854e8	-0.066568196
46	0x3da77276	0.081761286
47	0xbcda3188	-0.026634946
48	0xbcbcefad	-0.023063505
49	0x3d99e9c5	0.07515291
50	0xbde1c19d	-0.11023257
51	0x3d1fb3ac	0.038989708
52	0x3d059c64	0.03261985
53	0x3e127246	0.14301404
54	0x3da9c95f	0.082903616
55	0x3bffdcec	0.0078083184
56	0xbe0ff413	-0.1405795
57	0xbd7a5eaa	-0.061125435
58	0xbd9bf3ea	-0.07614882
59	0x3db3c1bd	0.08777187
60	0x3e24f1dd	0.16107889
61	0x3e42b022	0.19012502
62	0x3d42747b	0.047474366
63	0x3dc837a2	0.09776236
64	0xbd30657d	-0.043065537
65	0xbd3c6939	-0.045998786
66	0x3dac731d	0.084203936
67	0xbdcb306d	-0.09921346
68	0xbe1935c0	-0.1496191
69	0x3d4235ee	0.047414713
70	0xbe34a888	-0.17642415
71	0x3d36ce59	0.044630382
72	0x3d1279f5	0.03576084
73	0xbbb3bf99	-0.0054854867
74	0x3de7acc0	0.11312246
75	0x3dae8fed	0.085235454
76	0x3d76cf28	0.060256153
77	0xbc8c6943	-0.017140036
78	0xbdb37ade	-0.087636694
79	0x3db46b48	0.08809525
80	0x3d6fb2e1	0.0585202
81	0xbddfca2e	-0.109272346
82	0x3de4395c	0.11143753
83	0x3d87c7fc	0.06629941
84	0x3bfa94f7	0.0076471525
85	0xbce2055c	-0.027590446
86	0x3d852175	0.06500522
87	0x3cfebfb5	0.031097272
88	0xbc92fb8b	-0.01794221
89	0x3d8b9283	0.06815054
90	0x3d818fe6	0.063262746
91	0x3ddd452a	0.108042076
92	0x3bf8b58b	0.007590001
93	0x3d8d9734	0.06913605
94	0x3dc7ec5e	0.0976188
95	0x3dce2dd5	0.100673355
96	0x3db259f8	0.087085664
97	0x3db1fc09	0.0869065
98	0x3d9a8c2c	0.07546267
99	0xbd513198	-0.051072687
100	0x3d38ad17	0.045086946
101	0xbdbd5026	-0.09243803
102	0x3ca9d17b	0.02072977
103	0x3ab0d5ae	0.0013491416
104	0x3d68be45	0.05682208
105	0x3d8ae261	0.067814596
106	0x3cf7da01	0.03025532
107	0x3cdb65ac	0.02678188
108	0xbd6391e5	-0.055559058
109	0x3d0e34e4	0.03471841
110	0x3d8f5308	0.06998259
111	0x3d43ac6a	0.04777185
112	0xbd3d1aad	-0.046168018
113	0x3c471ead	0.01215331
114	0x3c9a3aa9	0.0188268
115	0xbd354448	-0.04425457
116	0x3e063c4a	0.13108936
117	0x3c29a7d1	0.010354952
118	0x3d86a6c0	0.06574774
119	0xbd88886d	-0.06666646
120	0x3ead9be3	0.33907995
121	0x3e3562f0	0.17713523
122	0x3ea8326c	0.3285097
123	0x3ecdd8cc	0.40204465
124	0xbcb1b386	-0.021692049
125	0xbe92def2	-0.2868572
126	0xbe18fccd	-0.14940186
127	0xbe070a59	-0.13187541
128	0x3d63b264	0.05559005
129	0xbdae71cb	-0.08517798
130	0x3d8f58e1	0.06999374
131	0xbde2130a	-0.11038788
132	0x3bbd0c03	0.005769254
133	0x3c82bfdd	0.015960628
134	0xbd5b043c	-0.053470835
135	0x3c3e2b8f	0.011607065
136	0xbe0e2de1	-0.13884689
137	0xbde2a37e	-0.1106634
138	0xbe1d14f9	-0.15340032
139	0x3af8d241	0.0018983559
140	0xbcf4e068	-0.029892161
141	0xbcb045e6	-0.021517705
142	0x3d56be6e	0.0524277
143	0x3da127a4	0.07868889
144	0x3e00adf8	0.12566364
145	0x3dc23dff	0.09484481
146	0x3e2c88ca	0.16849056
147	0x3d16bdee	0.036802225
148	0x3d9d0c6d	0.07668386
149	0xbdd3c60c	-0.10340509
150	0xbe12a4bf	-0.14320658
151	0xbd0840eb	-0.033265036
152	0xbd475b6e	-0.04867118
153	0xbd985dbe	-0.07439755
154	0xbda479a6	-0.08031015
155	0xbc5d6ce4	-0.013514731
156	0xbc8b013e	-0.016968366
157	0xbd2084b0	-0.03918904
158	0xbd298864	-0.041389838
159	0x3dd0af92	0.101897374
160	0x3d3a8074	0.04553266
161	0xbdc00c6e	-0.09377371
162	0xbdf044a6	-0.11731844
163	0xbd036be2	-0.032085307
164	0x3d9b9516	0.07596795
165	0x3dfcec55	0.12349764
166	0x3e1b08ae	0.1514003
167	0x3dfd7bf6	0.12377159
168	0xbcafe54e	-0.021471646
169	0xbdf29e95	-0.11846653
170	0x3d3c38eb	0.04595272
171	0xba8d6d90	-0.0010790098
172	0x3d73cbfe	0.059520714
173	0xbd6dd53c	-0.058064684
174	0xbdf2beea	-0.1185282
175	0x3d3ba33a	0.04580996
176	0xbc677df8	-0.014129154
177	0xbd596543	-0.053075086
178	0x3dfd7f68	0.123778164
179	0x3d7ec7e6	0.062202357
180	0x3e2415f7	0.16024004
181	0x3e1a3c64	0.150621
182	0xbcea3b99	-0.028592872
183	0x3e3457bb	0.17611592
184	0x3e07803e	0.13232514
185	0xbd946ae1	-0.07246948
186	0x3c5c3f6f	0.013442858
187	0x3dc2eed3	0.09518208
188	0x3dd87611	0.105693944
189	0xbc622c55	-0.013804515
190	0x3c77c90c	0.015123617
191	0xbc968313	-0.018373048
192	0x3da3c517	0.07996576
193	0xbde7f904	-0.11326793
194	0x3d0cee19	0.034406755
195	0xbdb0d05b	-0.08633491
196	0xbcc65384	-0.024209745
197	0x3e1857e5	0.14877279
198	0xbd1a5f82	-0.03768874
199	0x3d8c8643	0.06861546
200	0x3d43647b	0.047703248
201	0xbde394ef	-0.11112391
202	0xbd8e3c0b	-0.06945046
203	0xbd86761d	-0.06565497
204	0x3e0ceb58	0.13761652
205	0x3d4ba349	0.049716268
206	0x3d953977	0.07286351
207	0xbd3802e0	-0.044924617
208	0xbd829f37	-0.06378024
209	0x3df9f54b	0.12204989
210	0x3de6b029	0.11264069
211	0x3e075a36	0.13218006
212	0x3ca729e2	0.020405713
213	0x3c23a6e1	0.0099885175
214	0x3c8b1806	0.016979229
215	0xbdbd8ae5	-0.09255008
216	0xbcb1816a	-0.021668155
217	0x3e0755db	0.13216345
218	0x3ba7f796	0.00512595
219	0x3c3ecb22	0.01164511
220	0xbdf87d6d	-0.12133298
221	0x3da904fe	0.08252905
222	0xbce99cf8	-0.028517231
223	0x3ca87208	0.020562187
224	0xbcd5f7d5	-0.026119152
225	0x3d851c59	0.064995475
226	0x3db2479b	0.08705064
227	0x3d9af306	0.07565884
228	0xbd31351c	-0.04326354
229	0x3c02c0bd	0.007980523
230	0x3cada480	0.021196604
231	0x3dcfb562	0.10142018
232	0x3cad72ab	0.021172842
233	0xbe1742d9	-0.14771594
234	0xbe083916	-0.13303027
235	0xbd866f1b	-0.065641604
236	0xbcae8a4c	-0.02130618
237	0x3dc7904c	0.09744319
238	0x3d1e3f4c	0.038634583
239	0x3da6f4c0	0.08152151
240	0xbd90f70b	-0.0707837
241	0x3dfc3cce	0.12316285
242	0x3deaac35	0.11458627
243	0x3dbc6e6c	0.09200749
244	0x3d904b92	0.07045664
245	0x3e27c06f	0.16382001
246	0x3d648712	0.055792876
247	0x3d40932b	0.04701535
248	0x3d2b0f5c	0.041762695
249	0x3d314e50	0.043287575
250	0x3d6861f5	0.056734044
251	0x3e0d58c9	0.138034
252	0x3e123e21	0.14281513
253	0x3ded21e7	0.11578732
254	0x3de226aa	0.11042531
255	0x3db82346	0.08991103

bias f4 [16]
0	0x3d8ed717	0.06974619
1	0xbc4658cb	-0.012106131
2	0x3d66e4f4	0.05637069
3	0x3e148fc1	0.14507963
4	0x3cd7cc2a	0.02634247
5	0xbd9c3fd8	-0.07629365
6	0x3dc4cdd5	0.09609572
7	0xbcf36530	-0.029711336
8	0xbdd5472e	-0.10413967
9	0xbc4fb1ca	-0.012676666
10	0x3d216e2f	0.03941172
11	0x3e0491f2	0.12946299
12	0x3d872963	0.06599691
13	0x3e1ada10	0.15122247
14	0xbd40073a	-0.04688189
15	0xbcee3ecb	-0.029082676

weight f4 [4, 16, 1, 1]
0	0x3e94ab43	0.29036912
1	0x3e963c31	0.29342797
2	0x3d87ee52	0.06637253
3	0x3d5a1a34	0.053247645
4	0xbe95941c	-0.2921456
5	0x3e652551	0.22377516
6	0xbdd8479d	-0.10560534
7	0x3e9c4271	0.3051944
8	0x3e204822	0.15652516
9	0x3cbb4188	0.022858396
10	0x3e093a98	0.13401258
11	0xbde3332f	-0.11093747
12	0xbe06124e	-0.1309292
13	0xbe88b994	-0.26704085
14	0xbea0d74b	-0.31414255
15	0xbdd26f91	-0.10275186
16	0xbe845cad	-0.25851956
17	0xbea72536	-0.32645577
18	0x3d9bd324	0.07608631
19	0xbea87008	-0.32897973
20	0x3d064226	0.032777928
21	0x3ddc183c	0.1074681
22	0xbe84f3ee	-0.25967354
23	0xbe292354	-0.16517383
24	0x3dd1f8fe	0.102525696
25	0xbe2f6537	-0.17128454
26	0x3e235fa9	0.1595446
27	0xbe0ed4ec	-0.13948411
28	0xbe40946a	-0.18806615
29	0xbe84aa2d	-0.25911084
30	0xbe04746d	-0.12935038
31	0x3ddc7e05	0.10766224
32	0x3d519453	0.051166844
33	0x3c33a419	0.010964417
34	0x3cae9ca3	0.021314925
35	0x3e06a54f	0.13148998
36	0xbe076814	-0.13223296
37	0x3e0653b9	0.13117875
38	0x3e0dab96	0.13834986
39	0xbdc489bc	-0.09596583
40	0x3d471074	0.048599675
41	0xbdeeaee0	-0.116544485
42	0x3df92080	0.12164402
43	0x3e29819e	0.16553351
44	0x3d212c98	0.03934917
45	0xbe603bac	-0.21897763
46	0x3e0b6db5	0.13616069
47	0xbe9cc0ab	-0.30615744
48	0xbd5faf8a	-0.054610766
49	0x3be0ebde	0.006864055
50	0x3c8c3ad0	0.017117888
51	0xbe89611e	-0.26831907
52	0x3ba35b51	0.004985251
53	0xbe16f8f8	-0.14743412
54	0xbe7d55b2	-0.24739721
55	0x3db2baf1	0.087270625
56	0xbc328cff	-0.010897874
57	0xbe90c711	-0.28276876
58	0xbda1df53	-0.07903924
59	0xbe305079	-0.17218198
60	0xbe3ffc64	-0.18748623
61	0xbe6118fe	-0.2198219
62	0x3e0e55c6	0.13899907
63	0x3bac527e	0.0052588573

bias f4 [4]
0	0xbdd002d0	-0.101567864
1	0x3cc7b9ce	0.02438059
2	0xbe3f1251	-0.18659331
3	0xbe0b673a	-0.13613597
