code/model_maxAvgPool.pt (torch, 157320 bytes, 12 tensors)

weight f4 [16, 1, 3, 3]
0.04400343 0.25371033 -0.2505275 -0.22012673 -0.08651935 0.15037836 0.03877242 0.34367135
0.01748233 -0.26263937 -0.45313385 -0.3959346 -0.6857116 -0.5733724 -0.47066715 0.12163197
0.16517065 0.2079688 -0.25055337 -0.1735621 0.08412484 0.2378603 -0.093119845 0.21319668
-0.07811391 0.0066004246 0.2627541 -0.40639856 -0.29269916 -0.14616394 -0.29298577 0.1369673
-0.33110052 -0.26103675 -0.30401248 -0.35171148 -0.19453922 0.35502076 0.20080896 0.19974793
0.04048635 -0.14069407 0.09606427 -0.29363894 -0.20550102 -0.1465748 0.20298819 0.19850367
-0.11344691 0.031026354 0.21773027 0.28875044 0.13577195 0.05725911 0.34026527 -0.14683376
0.1580528 -0.22071742 -0.18234523 -0.113028646 0.25739536 0.2414214 -0.14176825 0.11518604
0.19480851 -0.042119 0.01932385 0.07846907 0.21365358 0.32598475 -0.27277353 -0.13138558
0.08754363 0.269042 0.33022484 0.3052623 0.044703774 -0.32843742 0.0024604043 -0.23900801
-0.32952324 0.2859631 0.24727803 -0.32954657 0.053912245 -0.06201041 -0.05487247 -0.1523713
0.1271952 -0.19348635 0.081451386 0.13636786 0.20903479 0.0840392 -0.36205214 -0.24141437
0.13529864 0.05400862 -0.27088797 0.022280637 0.3693054 0.28314 -0.52862805 -0.46973696
-0.72308934 -0.40872875 -0.66290176 -0.67438036 0.004361871 0.06792889 -0.10510755 0.2120978
-0.17068736 0.30933598 0.2366154 -0.24867138 -0.057701305 0.2071117 0.045493472 0.01563034
0.26983058 -0.0016756966 -0.23937581 0.28116658 -0.33359742 -0.2941589 -0.26526427 -0.32524028
0.2018231 -0.47185034 -0.19728611 0.21227379 -0.34992766 -0.11984482 0.31340483 0.022467595
0.06497773 0.030625315 0.11711885 0.25881177 0.34736845 0.2526492 0.3508639 0.029186325
00000000: f13c 343d 52e6 813e 2445 80be e768 61be
00000010: 0f31 b1bd c9fc 193e d4cf 1e3d b1f5 af3e
00000020: 1a37 8f3c ab78 86be 2901 e8be f1b7 cabe
00000030: cc8a 2fbf 89c8 12bf 49fb f0be 2f1a f93d
00000040: 7f22 293e c6f5 543e 8848 80be 43ba 31be
00000050: a549 ac3d a791 733e 9eb5 bebd 3b50 5a3e
00000060: 30fa 9fbd 6048 d83b b587 863e 7913 d0be
00000070: aadc 95be 00ac 15be 3b02 96be 2841 0c3e
00000080: 0286 a9be 9ca6 85be 86a7 9bbe 8713 b4be
00000090: 4a35 47be 48c5 b53e dda0 4d3e b98a 4c3e
000000a0: 04d5 253d 1b12 10be 58bd c43d d857 96be
000000b0: dc6e 52be b417 16be 23dc 4f3e 8c44 4b3e
000000c0: db56 e8bd fb2a fe3c aff4 5e3e 19d7 933e
000000d0: cd07 0b3e 8788 6a3d 4037 ae3e 975b 16be
000000e0: 98d8 213e bf03 62be b5b8 3abe 907b e7bd
000000f0: 53c9 833e 2c37 773e b22b 11be a9e6 eb3d
00000100: e27b 473e f984 2cbd 0d4d 9e3c 64b4 a03d
00000110: 01c8 5a3e 79e7 a63e f9a8 8bbe f189 06be
00000120: 134a b33d dfbf 893e 3b13 a93e 574b 9c3e
00000130: 4e1b 373d f328 a8be bc3e 213b 84be 74be
00000140: 45b7 a8be c169 923e 7436 7d3e 54ba a8be
00000150: 16d3 5c3d a1fe 7dbd f5c1 60bd 3907 1cbe
00000160: 753f 023e 4921 46be fccf a63d 04a4 0b3e
00000170: 370d 563e be1c ac3d e65e b9be 5435 77be
00000180: ba8b 0a3e 2538 5d3d d4b1 8abe e285 b63c
00000190: 9915 bd3e baf7 903e 2b54 07bf 5d81 f0be
000001a0: 621c 39bf e544 d1be eeb3 29bf 31a4 2cbf
000001b0: 07ee 8e3b 4d1e 8b3d a142 d7bd 2a30 593e
000001c0: abc8 2ebe 4961 9e3e 4f4b 723e b6a3 7ebe
000001d0: 3458 6cbd 1715 543e 5d57 3a3d 330b 803c
000001e0: 3c27 8a3e 0ca3 dbba ef1e 75be 11f5 8f3e
000001f0: 48cd aabe ff9b 96be b8d0 87be e585 a6be
00000200: b7aa 4e3e 5e96 f1be 5f05 4abe 4d5e 593e
00000210: b829 b3be 3371 f5bd 9976 a03e f60d b83c
00000220: 0b13 853d f1e1 fa3c 02dc ef3d fa82 843e
00000230: 47da b13e 3c5b 813e 6fa4 b33e 2918 ef3c

bias f4 [16]
-0.21234219 0.11331929 0.23583582 0.1571689 -0.06877271 -0.35008624 -0.1602185 -0.27763835
-0.010685596 0.23616482 0.17984398 0.105601534 0.25874004 -0.05728192 0.115451336 -0.11047738
00000000: 3b70 59be f213 e83d f27e 713e e2f0 203e
00000010: b5d8 8cbd 813e b3be 5210 24be 9d26 8ebe
00000020: a312 2fbc 31d5 713e 0529 383e 9e45 d83d
00000030: 9379 843e 72a0 6abd c071 ec3d f741 e2bd

weight f4 [32, 16, 3, 3]
-0.1411362 -0.16111197 -0.20951091 -0.18194452 -0.15333574 -0.13571577 -0.13971508 -0.100540385
-0.20394845 -0.052520607 0.12806295 0.0009812847 0.12464952 0.19965225 0.06998649 -0.42405742
-0.3532888 -0.39437163 0.071466744 -0.055967037 0.017246364 -0.008790729 0.07419594 0.034466233
0.04336629 0.039055884 -0.013864679 0.06615729 0.05720849 0.16237551 0.15499447 0.19026774
0.06779329 0.08664114 0.07079415 0.0802683 -0.075302534 -0.016563302 -0.105005756 -0.07217939
-0.0831192 -0.033704426 -0.171801 -0.18963572 -0.19153273 0.20248643 0.093127415 0.20679078
0.14157704 0.10058887 0.10470845 0.10050199 0.10571041 0.09023909 -0.20084955 -0.21824224
-0.31192708 -0.23956315 -0.1737973 -0.32267493 -0.22550231 -0.17910533 -0.25369027 0.09154559
-0.045150954 0.057229467 -0.031751156 -0.06496959 -0.07896303 -0.02069543 -0.08136232 -0.030576348
0.022346692 0.07478403 0.03439569 -0.07613442 -0.00010473818 -0.10705479 -0.09477675 -0.055598218
-0.07037152 0.07296043 -0.012217854 0.0075350557 0.056616805 -0.06517372 0.06886983 -0.06255988
0.008310374 -0.014289719 -0.055156372 0.007294507 0.05494361 -0.029194944 -0.045868065 -0.035651628
-0.09910908 0.027047182 -0.060206145 -0.46560356 -0.42752776 -0.352452 0.12039255 0.16610862
0.1527841 0.02423207 0.04394609 0.07863184 0.076310635 0.034232114 -0.033871602 -0.029533086
-0.06580572 0.023935154 -0.045348715 -0.06978997 0.07022049 -0.010146065 0.1552376 0.16443145
0.050531555 0.10528769 0.062056087 0.053810857 0.12031343 0.12752163 0.04465895 0.2061729
-0.17796047 0.092326105 0.1609865 -0.11104754 0.086640686 0.17372406 -0.18091111 0.003087786
0.10108113 -0.019286046 0.07504544 0.0006088454 -0.0130286915 0.049936216 -0.020271752 0.04001924
0.18015268 -0.20122363 -0.18750393 0.19357677 -0.10573902 -0.19264276 0.08720796 -0.17012747
-0.15438093 -0.07667352 0.22444466 -0.03482923 0.33817 0.44857258 0.35886958 -0.3610522
-0.08630913 -0.42748553 -0.08268491 -0.010812147 0.00784115 0.0727669 0.047457263 -0.022974633
0.01559572 -0.06270724 -0.123886965 0.06820456 0.25231305 0.18819137 0.09395985 0.21291429
0.2075999 0.22672702 0.24747169 0.19921945 0.029845398 -0.0508606 0.040194534 0.07316763
-0.10251776 0.034665328 0.053507794 -0.016403671 -0.11767151 -0.0046556992 -0.07623003 0.01800018
-0.040473737 -0.007243194 -0.024862265 0.005745471 -0.070618525 -0.0068144775 -0.061482973 0.11630515
-0.07001868 -0.12888607 -0.04363459 -0.17976594 0.00949379 0.103286654 -0.012278999 -0.086031176
-0.077444576 -0.031126183 -0.08475983 0.015417158 -0.100247696 -0.060971715 -0.1102904 -0.079364255
0.030905727 0.049773768 0.003562353 0.054305468 0.08492813 -0.043884307 -0.002170355 0.052659355
-0.026414923 0.074403204 0.039965294 0.01491239 -0.016875867 0.056147415 -0.00606297 -0.026572634
-0.05134833 -0.081759445 -0.067701735 0.06922817 0.036543496 0.014904358 -0.0071623703 0.06973735
0.05299959 0.022505624 -0.05748116 -0.0060139657 0.028652957 -0.39978045 0.53681177 0.5144547
0.35756856 0.25698328 0.2956586 -0.012910104 0.05310451 0.0005545751 -0.09834328 -0.027292749
00000000: 0286 10be 89fa 24be 078a 56be aa4f 3abe
00000010: 0b04 1dbe 13f9 0abe 7811 0fbe 1ee8 cdbd
00000020: ddd7 50be d91f 57bd ef22 033e 739e 803a
00000030: 3f48 ff3d a471 4c3e 1455 8f3d 0e1e d9be
00000040: 45e2 b4be 14eb c9be 285d 923d b13d 65bd
00000050: 3f48 8d3c fd06 10bc 0af4 973d 772c 0d3d
00000060: daa0 313d 10f9 1f3d ae28 63bc 797d 873d
00000070: 7353 6a3d c445 263e dfb6 1e3e 8cd5 423e
00000080: 35d7 8a3d e970 b13d 86fc 903d b563 a43d
00000090: 3738 9abd c3af 87bc 420d d7bd cad2 93bd
000000a0: 663a aabd a70d 0abd 9aec 2fbe de2f 42be
000000b0: 2821 44be 9a58 4f3e 96b9 be3d f6c0 533e
000000c0: 92f9 103e 8a01 ce3d 6271 d63d fdd3 cd3d
000000d0: b37e d83d 46cf b83d 81ab 4dbe e57a 5fbe
000000e0: e8b4 9fbe 0b50 75be ebf7 31be a635 a5be
000000f0: 14ea 66be 6367 37be b1e3 81be 417c bb3d
00000100: 35f0 38bd 7269 6a3d 800d 02bd c70e 85bd
00000110: 5eb7 a1bd 7689 a9bc 4aa1 a6bd 407b fabc
00000120: 6910 b73c 5f28 993d 7fe2 0c3d 5dec 9bbd
00000130: e2a6 dbb8 8b3f dbbd 501a c2bd f5ba 63bd
00000140: f21e 90bd 476c 953d 652d 48bc a1e8 f63b
00000150: 06e7 673d cd79 85bd a00b 8d3d 651f 80bd
00000160: 3c28 083c 6d1f 6abc a6eb 61bd c306 ef3b
00000170: 8d0c 613d 3c2a efbc 27e0 3bbd 7107 12bd
00000180: b4f9 cabd 0d92 dd3c b89a 76bd 9763 eebe
00000190: ebe4 dabe 9774 b4be 5f90 f63d 6118 2a3e
000001a0: 6f73 1c3e 5682 c63c d100 343d bb09 a13d
000001b0: c048 9c3d f936 0c3d f3bc 0abd 5fef f1bc
000001c0: 26c5 86bd a813 c43c 93bf 39bd 0bee 8ebd
000001d0: c3cf 8f3d ae3b 26bc 9bf6 1e3e b860 283e
000001e0: 2dfa 4e3d 13a1 d73d 862e 7e3d c668 5c3d
000001f0: e366 f63d 0895 023e 4eec 363d fd1e 533e
00000200: 453b 36be 7815 bd3d a5d9 243e e56c e3bd
00000210: ac70 b13d b8e4 313e c340 39be 745c 4a3b
00000220: a003 cf3d c5fd 9dbc 6cb1 993d ec9a 1f3a
00000230: 4b76 55bc eb89 4c3d f210 a6bc 37eb 233d
00000240: f279 383e 910d 4ebe 0801 40be fd38 463e
00000250: b38d d8bd 2544 45be 169a b23d e535 2ebe
00000260: 0916 1ebe 0207 9dbd d2d4 653e 18a9 0ebd
00000270: 9e24 ad3e 4eab e53e c1bd b73e d5db b8be
00000280: d7c2 b0bd 62df dabe b556 a9bd 6e25 31bc
00000290: 2b78 003c d006 953d 8c62 423d 4c35 bcbc
000002a0: 3185 7f3c a76c 80bd 73b8 fdbd d5ae 8b3d
000002b0: 2d2f 813e 3db5 403e 066e c03d 3406 5a3e
000002c0: 1195 543e 212b 683e 3869 7d3e 2f00 4c3e
000002d0: 567e f43c 3453 50bd 06a3 243d e9d8 953d
000002e0: d5f4 d1bd 3bfd 0d3d fd2a 5b3d fe60 86bc
000002f0: c3fd f0bd d68e 98bb 7d1e 9cbd 1d75 933c
00000300: cac7 25bd 5158 edbb f3ab cbbc 8144 bc3b
00000310: 72a0 90bd fb4b dfbb 92d5 7bbd 6531 ee3d
00000320: f465 8fbd b6fa 03be 2fba 32bd 9014 38be
00000330: d78b 1b3c f487 d33d db2d 49bc 1d31 b0bd
00000340: 439b 9ebd 56fc febc 9096 adbd 3f98 7c3c
00000350: aa4e cdbd 7abd 79bd efdf e1bd ba89 a2bd
00000360: 022e fd3c 94df 4b3d 5e76 693b 696f 5e3d
00000370: cdee ad3d 08c0 33bd 843c 0ebb 56b1 573d
00000380: 1c64 d8bc b560 983d a6b2 233d 1953 743c
00000390: 423f 8abc d5fa 653d e1ab c6bb daae d9bc
000003a0: a052 52bd 7f71 a7bd 35a7 8abd 80c7 8d3d
000003b0: a2ae 153d 6931 743c 51b2 eabb 75d2 8e3d
000003c0: 1916 593d b75d b83c 5d71 6bbd cd10 c5bb
000003d0: 9bb9 ea3c 06b0 ccbe 7f6c 093f 4eb3 033f
000003e0: 3a13 b73e 5093 833e 9060 973e e784 53bc
000003f0: 1d84 593d e860 113a 3468 c9bd 0b95 dfbc

bias f4 [32]
0.028302379 0.066687904 0.07001124 -0.02335887 0.10426164 0.067906186 0.108978786 0.04030385
0.007958382 0.109071195 0.13507424 0.060931142 0.09576892 0.029523933 0.10301127 0.07698034
0.039895598 0.0927264 0.08439244 0.0697656 0.1272318 0.06498557 0.082333505 0.023900252
-0.030114323 0.027553327 0.059297115 0.04224138 -0.023363452 0.06256716 0.11690591 -0.0066336584
00000000: 64da e73c ab93 883d 0e62 8f3d 1a5b bfbc
00000010: 2087 d53d 6612 8b3d 4530 df3d a615 253d
00000020: e063 023c b860 df3d e750 0a3e ef92 793d
00000030: 7f22 c43d 2ddc f13c 93f7 d23d dea7 9d3d
00000040: 9169 233d 57e7 bd3d f2d5 ac3d 44e1 8e3d
00000050: 0e49 023e 2817 853d 789e a83d 76ca c33c
00000060: 50b2 f6bc 84b7 e13c 88e1 723d 4c05 2d3d
00000070: b664 bfbc 3623 803d 5e6c ef3d 295f d9bb

weight f4 [64, 32, 3, 3]
0.076762676 0.028787531 0.05015995 -0.006729552 -0.03989777 0.004161698 0.031731606 0.0031820177
0.09199343 0.06789943 0.09156619 0.03696118 0.19926107 0.14516401 0.1571972 0.15060413
0.14353105 0.11506777 0.025675382 -0.014787245 -0.004190287 0.0693738 0.060152493 -0.0057850853
-0.023740442 0.04091029 0.030066648 -0.020023957 -0.037284564 -0.052182093 -0.01705982 0.040025838
0.0049181553 -0.07895411 -0.022009034 0.041141145 -0.03102842 -0.01868325 0.0420496 0.121515244
0.012438768 -0.00667274 0.023256628 0.119852334 0.0042345254 0.028587572 0.08773939 -0.014800531
0.046742354 0.041816417 0.053220272 0.09855261 0.0878676 0.074105285 0.08819438 0.12830266
-0.009331528 0.19549096 0.189947 0.025390824 0.09690794 0.19856347 0.09576575 0.012774178
-0.017664049 -0.02106275 0.0015296342 0.08139869 0.09089251 0.06555806 0.08559728 0.09350335
0.040011592 0.03431369 0.031025264 0.027931295 0.042911086 -0.028456712 -0.03091659 0.023401678
0.016437422 -0.044255193 -0.017064864 -0.033198006 0.072883375 0.078033894 -0.0009997158 0.010305191
0.0053667044 0.05919657 -0.014769637 -0.003629406 -0.029509688 0.087261066 0.021548722 0.061814252
0.06797276 0.03070104 0.019565294 0.15073137 0.27752128 -0.008897821 0.39566317 0.41224036
0.24923682 0.2126052 0.26125994 0.18742593 0.008339573 0.015238879 -0.032236986 -0.04258977
0.012359385 -0.021132356 -0.07459196 -0.050521683 -0.044430938 -0.032039937 0.060301773 0.046785027
0.064011954 0.0013886733 0.089967966 0.034996297 0.076005235 0.021473924 0.021408495 -0.040167045
0.02017719 0.05908494 0.05697958 -0.034800816 -0.035464626 -0.0051729865 0.020456994 0.29051036
0.5199506 0.011046603 0.4165346 0.53918314 0.13571209 0.18958719 0.6512119 -0.2251781
-0.041757606 0.041530907 -0.10783844 0.33105102 0.28488135 0.2279038 0.17198429 0.15073456
0.076727174 0.19408792 0.20873298 -0.04440017 0.15711896 0.24348049 0.09776311 0.11828339
0.2379805 0.017607717 -0.044889987 -0.01758937 0.05411321 -0.0005635214 0.003386763 0.021566458
-0.0063040997 0.026736923 0.029053906 -0.05129288 0.069980875 -0.055555526 0.036880642 0.01940521
-0.0011800077 0.044261664 -0.0467537 0.0030251576 0.14459728 0.19110706 -0.021344436 0.1282826
0.20725219 -0.013777366 0.12112775 0.11083312 0.038748913 0.0013743434 0.078030095 0.04399357
0.07869368 0.030146688 0.046324886 0.03743942 -0.0025232655 0.032237146 -0.014604939 -0.032683402
0.044954553 -0.023645816 0.018300682 0.016982147 -0.061130486 0.015862172 -0.029265802 -0.049322996
0.0014453568 0.052166115 0.014510382 0.048605848 -0.000573887 -0.020567324 0.047495045 -0.03137367
0.01630711 0.057993095 0.084786355 -0.03209337 -0.008255626 -0.017024145 -0.010106314 -0.035679378
-0.019948669 -0.020038461 0.04913238 0.004764813 0.09840683 0.07092375 0.005802236 0.005540688
0.0321784 0.080559336 -0.050930485 -0.019163122 0.007699067 -0.0339848 0.00034172495 0.07311221
-0.042847335 -0.008888237 0.041604068 0.029205695 0.05956439 -0.034122184 0.050256334 0.004678681
-0.01553348 -0.0012111724 -0.034814645 0.06390004 -8.353946e-05 -0.041080005 0.0477533 0.078725025
00000000: c035 9d3d d4d3 eb3c 8574 4d3d 9383 dcbb
00000010: d86b 23bd da5e 883b 00f9 013d 6689 503b
00000020: 0d67 bc3d db0e 8b3d 0e87 bb3d 9b64 173d
00000030: 180b 4c3e e0a5 143e 4ef8 203e f837 1a3e
00000040: cef9 123e a7a8 eb3d 2e55 d23c 3346 72bc
00000050: ad4e 89bb da13 8e3d 7662 763d d090 bdbb
00000060: 517b c2bc 8c91 273d 554e f63c 4809 a4bc
00000070: b3b7 18bd e4bc 55bd 09c1 8bbc 22f2 233d
00000080: 7a28 a13b b1b2 a1bd 4a4c b4bc 9e83 283d
00000090: 502f febc 9d0d 99bc 343c 2c3d fcdc f83d
000000a0: f9cb 4b3c 00a7 dabb af84 be3c 2475 f53d
000000b0: c6c1 8a3b 7c30 ea3c b6b0 b33d ed7d 72bc
000000c0: e974 3f3d b147 2b3d 80fd 593d f3d5 c93d
000000d0: eef3 b33d 83c4 973d 419f b43d c661 033e
000000e0: 44e3 18bc c82e 483e 7781 423e 6b00 d03c
000000f0: ac77 c63d 3954 4b3e d520 c43d c94a 513c
00000100: 32b4 90bc ca8b acbc 027e c83a 5bb4 a63d
00000110: da25 ba3d 4e43 863d a04d af3d af7e bf3d
00000120: 32e3 233d 838c 0c3d b228 fe3c 2cd0 e43c
00000130: 89c3 2f3d 0d1e e9bc ca44 fdbc e0b4 bf3c
00000140: c6a7 863c ef44 35bd 9dcb 8bbc a2fa 07bd
00000150: e143 953d 3cd0 9f3d e508 83ba 1bd7 283c
00000160: 2edb af3b 1a78 723d 59fc 71bc 54db 6dbb
00000170: 4dbe f1bc eeb5 b23d f286 b03c f130 7d3d
00000180: 4d35 8b3d bf80 fb3c 6547 a03c 5359 1a3e
00000190: 4517 8e3e 2bc8 11bc 5d94 ca3e 2b11 d33e
000001a0: f037 7f3e 2db5 593e ddc3 853e 95ec 3f3e
000001b0: b4a2 083c 7eac 793c ee0a 04bd 9c72 2ebd
000001c0: 057f 4a3c c31d adbc abc3 98bd d3ef 4ebd
000001d0: 37fd 35bd 4f3c 03bd fefe 763d a8a1 3f3d
000001e0: b318 833d 2504 b63a 2041 b83d 4758 0f3d
000001f0: a2a8 9b3d 15ea af3c de60 af3c 3386 24bd
00000200: a24a a53c 0d03 723d 6c63 693d 4d8b 0ebd
00000210: 5b43 11bd 2882 a9bb 6d95 a73c c6bd 943e
00000220: 7c1b 053f d0fc 343c 0644 d53e e807 0a3f
00000230: 1cf8 0a3e 2523 423e d3b5 263f 1695 66be
00000240: 060a 2bbd 501c 2a3d 66da dcbd 857f a93e
00000250: f8db 913e 9d5f 693e a61c 303e 295a 1a3e
00000260: 2323 9d3d fcbe 463e 19be 553e f4dc 35bd
00000270: cbe3 203e f352 793e 0738 c83d 903e f23d
00000280: 29b1 733e 0f3e 903c 90de 37bd 9517 90bc
00000290: d0a5 5d3d 48b9 13ba 74f4 5d3b 24ac b03c
000002a0: 9f92 cebb 6407 db3c 7502 ee3c 7c18 52bd
000002b0: 2252 8f3d 318e 63bd 2810 173d adf7 9e3c
000002c0: 7daa 9aba b84b 353d cf80 3fbd b941 463b
000002d0: 4f11 143e 92b1 433e 87da aebc 845c 033e
000002e0: eb39 543e 76ba 61bc d311 f83d 7afc e23d
000002f0: 2eb7 1e3d 5023 b43a 3ece 9f3d 9a32 343d
00000300: 272a a13d 30f6 f63c 2abf 3d3d 145a 193d
00000310: 5f5d 25bb 190b 043d 8e49 6fbc 08df 05bd
00000320: 4422 383d dfb4 c1bc 50eb 953c 251e 8b3c
00000330: f663 7abd 63f1 813c d6be efbc e906 4abd
00000340: 2072 bd3a 23ac 553d f4bc 6d3c ed16 473d
00000350: e870 16ba ce7c a8bc 2a8a 423d ad81 00bd
00000360: 7d96 853c 2b8a 6d3d 78a4 ad3d 5674 03bd
00000370: 9b42 07bc 3876 8bbc f494 25bc 8a24 12bd
00000380: 646b a3bc b327 a4bc 093f 493d 2622 9c3b
00000390: 8589 c93d 7940 913d af20 be3b a98e b53b
000003a0: 7fcd 033d 4bfc a43d 7c9c 50bd fbfb 9cbc
000003b0: 7448 fc3b a533 0bbd 8c29 b339 dbbb 953d
000003c0: b080 2fbd f89f 11bc 0769 2a3d c840 ef3c
000003d0: caf9 733d b4c3 0bbd 96d9 4d3d 9f4f 993b
000003e0: 2380 7ebc 34c0 9eba cd99 0ebd 06de 823d
000003f0: e831 afb8 8243 28bd f798 433d 963a a13d

bias f4 [64]
0.07055214 0.07645023 0.031170087 0.007244359 0.01454328 0.0027782144 0.051102154 0.048046142
0.058255106 0.08223524 0.12485049 0.034658313 0.01602167 -0.03454357 0.008346014 0.09347483
0.101040415 0.06953386 -0.0055750017 0.1182709 -0.044440236 0.08192835 0.047635656 0.057955537
0.0548752 0.07856212 0.12046291 0.040965777 0.03968584 -0.028154984 0.024216613 0.033018757
0.09297439 0.081773534 -0.029501958 0.0875655 0.031252567 0.018002558 0.100438386 0.04705202
0.004301989 0.036958996 -0.03759797 0.11695797 0.0015940062 -0.031079225 0.07398293 0.097354434
0.07067865 -0.0038596045 -0.009507853 0.10071676 0.12234431 0.018220667 0.015975496 0.03433737
-0.08493733 -0.025681999 0.0087295 0.03260239 0.11241038 -0.02010623 -0.04971201 0.025917636
00000000: a47d 903d f091 9c3d 6958 ff3c 1662 ed3b
00000010: f046 6e3c b412 363b 7e50 513d 08cc 443d
00000020: e89c 6e3d f36a a83d 9db1 ff3d e0f5 0d3d
00000030: e13f 833c 8f7d 0dbd b8bd 083c bb6f bf3d
00000040: 47ee ce3d c567 8e3d 81ae b6bb 0338 f23d
00000050: f706 36bd 0dca a73d 9b1d 433d c962 6d3d
00000060: d1c4 603d 2de5 a03d 42b5 f63d bbcb 273d
00000070: 9f8d 223d 48a5 e6bc eb61 c63c ad3e 073d
00000080: 5b69 be3d e278 a73d 17ae f1bc 8a55 b33d
00000090: b102 003d 1a7a 933c a4b2 cd3d 9eb9 403d
000000a0: b3f7 8c3b 5162 173d 5400 1abd a987 ef3d
000000b0: f9ed d03a dc99 febc 5d84 973d c361 c73d
000000c0: f8bf 903d 6bf1 7cbb d3c6 1bbc 9744 ce3d
000000d0: a78f fa3d 8243 953c 0bdf 823c 58a5 0c3d
000000e0: 9ff3 adbd 0e63 d2bc 2d06 0f3c 158a 053d
000000f0: 6a37 e63d d2b5 a4bc d29e 4bbd 3951 d43c

weight f4 [64, 32, 2, 2]
0.07639901 0.05104934 0.025114458 0.029137395 0.05177093 0.042474024 -0.030290496 0.016787674
0.05721829 0.013587157 0.12567046 0.077772565 -0.050244972 0.05230575 0.07154345 -0.05716572
-0.003462558 0.017501403 -0.016133359 0.005641109 0.0055787154 -0.10444799 -0.09162057 0.009330407
0.12113462 -0.012106411 0.11877225 0.050217304 0.044778615 -0.0134741105 0.0071805725 0.04614733
0.032940924 -0.094689764 -0.032115314 -0.08952872 0.037435215 0.017998392 0.050820872 -0.025939917
-0.030918157 0.045048 0.008282397 -0.02572302 -0.050353188 -0.048717886 0.054658383 -0.048878636
-0.0014032933 -0.06870066 0.07630035 -0.030902345 0.08818174 -0.05549419 -0.009901327 0.05099311
-0.045712 0.11498399 0.09131905 0.110071674 0.10057322 -0.0136856 0.09136655 -0.016514042
0.09137938 -0.036404178 0.029070944 -0.0381837 -0.07484398 0.0051667397 -0.06937342 0.056631397
-0.07054795 -0.01664814 -0.077401035 0.07957165 0.044389237 0.07333873 0.040088058 0.019118566
0.08873414 0.08105452 -0.012391941 -0.048054416 0.06996849 0.019848898 0.15872045 0.10654402
0.07275749 -0.03823046 0.14384632 0.047765117 -0.072621554 -0.017167913 0.0385636 0.008640282
-0.04646312 -0.056939434 0.12673724 -0.027852347 -0.0038072849 -0.08954411 -0.005740527 0.043731462
0.07648652 0.10524021 0.07750898 0.10087331 0.008616798 0.029340547 0.07402593 -0.02169315
-0.016390922 -0.03749146 0.028719123 -0.03981155 0.06379928 -0.021134714 0.116513394 0.08763051
0.0726849 0.03231079 -0.08215544 -0.06589827 0.11504889 -0.0068493113 0.14705308 0.10134748
-0.0039074332 0.061336733 0.08171378 0.10217802 -0.089882225 -0.011727789 -0.02109348 -0.02066901
0.050709125 -0.0220046 0.09155409 0.08027599 0.036466405 -0.013719143 0.046848495 0.02002467
-0.07293696 0.07642931 -0.09224848 0.056108665 -0.045093603 0.054655887 0.06001615 -0.0001160949
0.03306195 0.10441965 0.109431446 -0.0067678695 -0.082141556 0.07320323 -0.037109625 -0.1058296
-0.067026824 -0.03381532 -0.0935607 -0.052038524 0.051306948 -0.027405323 0.0010192213 0.035564546
0.066027336 -0.056469057 0.026724447 -0.030524114 0.023295179 0.06199279 -0.081892215 0.05666125
-0.048767284 -0.0603754 -0.019483136 -0.0037383118 0.024298484 -0.008449232 -0.061385598 0.050111733
-0.030724963 0.018784452 0.08034224 0.047345784 0.011054683 -0.025606925 0.13511184 -0.019781146
0.04529886 0.10501824 0.0252947 -0.00042565106 0.067585275 -0.09047716 -0.03641485 -0.08032667
-0.04699434 0.11233182 -0.04430756 0.079500824 -0.029656224 0.09713157 -0.03392471 0.015103112
0.09223836 -0.05972327 -0.026631914 0.054982144 0.079658195 0.027500272 0.0035601158 0.040355194
0.08658015 0.0064317146 0.058666967 -0.023019785 0.053557698 0.0037433072 -0.059291024 0.0753588
0.13293867 0.0051215705 0.123096116 0.048072036 0.11966013 -0.08371713 0.06136076 0.027119065
0.016293192 0.12100188 0.003329105 0.028128456 0.06376854 0.08426453 0.11928674 -0.0437668
0.034185603 0.10255744 -0.0063824286 0.044497684 0.041779418 0.024959924 0.028075697 -0.050767113
-0.056103494 0.04800387 0.06915919 0.0059915693 0.1303855 -0.0022231662 0.1363344 0.09359177
00000000: 1677 9c3d 1d19 513d d6bc cd3c 8cb1 ee3c
00000010: c10d 543d 3ef9 2d3d c623 f8bc 4e86 893c
00000020: ba5d 6a3d ab9c 5e3c c2af 003e 3947 9f3d
00000030: accd 4dbd 8e3e 563d 5f85 923d 9a26 6abd
00000040: 15ec 62bb 1a5f 8f3c 1b2a 84bc 0dd9 b83b
00000050: a8cd b63b d4e8 d5bd 91a3 bbbd 90de 183c
00000060: 6d15 f83d f859 46bc de3e f33d a9b0 4d3d
00000070: c869 373d 84c2 5cbc 024b eb3b fc04 3d3d
00000080: 10ed 063d b5ec c1bd 598b 03bd d55a b7bd
00000090: ab55 193d 5d71 933c 8c29 503d f37f d4bc
000000a0: 1348 fdbc 4084 383d e4b2 073c 15b9 d2bc
000000b0: 253f 4ebd 688c 47bd 78e1 5f3d f734 48bd
000000c0: b6ee b7ba eeb2 8cbd 5c43 9c3d ea26 fdbc
000000d0: a198 b43d e04d 63bd 2d39 22bc 27de 503d
000000e0: 823c 3bbd ba7c eb3d 7b05 bb3d 426d e13d
000000f0: 55f9 cd3d 9139 60bc 631e bb3d 7548 87bc
00000100: 1d25 bb3d 8c1c 15bd 3026 ee3c 8366 1cbd
00000110: cd47 99bd c14d a93b a713 8ebd 53f6 673d
00000120: 727b 90bd ae61 88bc 6f84 9ebd 76f6 a23d
00000130: 7dd1 353d 9e32 963d 6033 243d 8a9e 9c3c
00000140: 3fba b53d eaff a53d 9107 4bbc b5d4 44bd
00000150: a44b 8f3d 289a a23c 9d87 223e c033 da3d
00000160: e101 953d 8b97 1cbd 734c 133e 5ba5 433d
00000170: 9cba 94bd b9a3 8cbc def4 1d3d f88f 0d3c
00000180: 1d50 3ebd 5339 69bd 68c7 013e 9b2a e4bc
00000190: a483 79bb e762 b7bd 081b bcbb c31f 333d
000001a0: f7a4 9c3d 2e88 d73d 07bd 9e3d aa96 ce3d
000001b0: 782d 0d3c 965b f03c e89a 973d d5b5 b1bc
000001c0: 4146 86bc a590 19bd 5e44 eb3c 7011 23bd
000001d0: 32a9 823d b522 adbc 939e ee3d a077 b33d
000001e0: d2db 943d 5258 043d 1c41 a8bd acf5 86bd
000001f0: c19e eb3d 3070 e0bb 1595 163e 458f cf3d
00000200: ed09 80bb 3a3c 7b3d 8e59 a73d b642 d13d
00000210: 2c14 b8bd ea25 40bc 3ccc acbc 0e52 a9bc
00000220: 5fb4 4f3d fe42 b4bc b680 bb3d bd67 a43d
00000230: cc5d 153d 42c6 60bc 35e4 3f3d c70a a43c
00000240: f95f 95bd f886 9c3d c5ec bcbd 33d2 653d
00000250: 12b4 38bd dade 5f3d 7fd3 753d fa77 f3b8
00000260: f86b 073d f8d9 d53d 981d e03d 01c5 ddbb
00000270: d539 a8bd 93eb 953d 4300 18bd 30bd d8bd
00000280: 5c45 89bd ef81 0abd c19c bfbd 5926 55bd
00000290: 3c27 523d 2181 e0bc 6497 853a 21ac 113d
000002a0: 5739 873d 194c 67bd 3aed da3c b50d fabc
000002b0: 88d5 be3c 27ec 7d3d 1bb7 a7bd a015 683d
000002c0: 34c0 47bd 324c 77bd 199b 9fbc 77fe 74bb
000002d0: 9d0d c73c a66e 0abc 776f 7bbd f641 4d3d
000002e0: ebb2 fbbc dae1 993c 798a a43d a7ed 413d
000002f0: b31e 353c 9dc5 d1bc c25a 0a3e 120c a2bc
00000300: 4c8b 393d ce13 d73d d536 cf3c eb29 dfb9
00000310: 266a 8a3d 174c b9bd bd27 15bd 4f82 a4bd
00000320: 237d 40bd 3a0e e63d d87b 35bd 54d1 a23d
00000330: 9cf1 f2bc ebec c63d a3f4 0abd 0b73 773c
00000340: 77e7 bc3d 63a0 74bd 2c2b dabc f534 613d
00000350: d623 a33d 4048 e13c d550 693b 7d4b 253d
00000360: ef50 b13d 22c1 d23b c64c 703d fd93 bcbc
00000370: 515f 5b3d 4652 753b 25db 72bd b755 9a3d
00000380: 1321 083e d9d2 a73b d119 fc3d 2fe7 443d
00000390: 5f10 f53d e373 abbd 6c55 7b3d cd28 de3c
000003a0: 4d79 853c d5cf f73d 1d2d 5a3b a66d e63c
000003b0: 1599 823d e292 ac3d 9b4c f43d d144 33bd
000003c0: 3406 0c3d a309 d23d b123 d1bb 3443 363d
000003d0: e520 2b3d c178 cc3c 01ff e53c 2df1 4fbd
000003e0: c7cc 65bd b59f 443d 55a3 8d3d ed54 c43b
000003f0: c783 053e 8ab2 11bb 3f9b 0b3e 0bad bf3d

bias f4 [32]
-0.08281194 -0.017733492 0.110753946 0.024598017 -0.07943515 -0.02370318 0.13204743 -0.017172832
0.009750318 0.0053818193 -0.05620026 -0.0071921153 0.17975499 0.10560652 0.11229147 0.0010133802
0.13139865 0.048707884 0.15937762 0.06799025 0.0012260537 -0.08248393 -0.01506369 -0.04909467
0.067349344 -0.011356042 0.009178949 0.083076626 0.1557809 -0.006014827 -0.020221015 0.04449112
00000000: 4e99 a9bd d445 91bc f7d2 e23d c881 c93c
00000010: e5ae a2bd 2c2d c2bc 7137 073e 0aae 8cbc
00000020: ccbf 1f3c f959 b03b 3e32 66bd d6ab ebbb
00000030: b111 383e 3b48 d83d 12f9 e53d 66d3 843a
00000040: 5e8d 063e eb81 473d e333 233e 793e 8b3d
00000050: 89b3 a03a 56ed a8bd b2cd 76bc 7e17 49bd
00000060: 74ee 893d b10e 3abc 4d63 163c 1424 aa3d
00000070: 0785 1f3e 0718 c5bb 8ba6 a5bc 523c 363d

weight f4 [32, 16, 2, 2]
-0.044902157 -0.11374002 0.03305756 0.04867414 -0.09545337 -0.11643577 0.075186834 -0.19736499
0.011372272 0.07789487 0.062057752 -0.027880363 -0.098644964 -0.03560002 -0.09736911 -0.12843475
0.046509948 0.08584245 0.15590417 0.20611212 -0.013631117 -0.12088948 -0.009913466 0.057671763
0.05472477 -0.082234785 -0.049671926 -0.09750109 -0.0075789634 -0.036855623 0.037509754 0.03883235
0.001327666 -0.03537273 -0.069178514 -0.0981887 -0.041950606 0.029941188 -0.021623297 -0.112972304
-0.05099816 -0.078525394 -0.13572037 -0.1098266 -0.059246138 -0.06699441 0.07468082 -0.039994776
-0.022634456 0.08228384 -0.115851134 0.033280373 0.047974654 0.14358869 0.11042222 0.02793862
-0.043783367 -0.0967649 -0.027212739 0.093938656 0.1660155 0.17938885 0.04428206 0.0983682
-0.0972845 -0.046192553 0.11355387 -0.09939174 -0.13527738 -0.011147812 0.026220232 -0.056819573
0.035587933 0.011185164 0.112917796 0.09058887 -0.05741959 -0.098881766 -0.09904025 0.04183749
-0.06295904 0.08345876 0.10771316 0.08439059 0.007312234 -0.027830169 0.06475154 0.030931452
-0.022767581 -0.01704103 0.06688737 0.093991116 -0.03418805 0.098471925 0.10153536 -0.06931256
0.08675355 0.08252123 0.075254016 -0.051313996 0.096181095 -0.073906295 0.08942905 0.009799236
0.0567238 0.06774387 0.029046685 0.026594954 -0.062079925 -0.08328464 -0.08447437 0.0075013046
-0.05116912 -0.023971962 0.025730547 -0.102484465 0.14335635 0.022153422 0.094717234 -0.08176187
0.03527259 -0.06878253 0.097206466 0.077480674 -0.055371694 -0.19686411 -0.18173586 -0.14301524
0.017010696 -0.0854771 0.046486393 -0.11047818 -0.02652664 -0.00899001 -0.08156702 0.033609293
-0.13756897 -0.10405257 -0.15381905 0.0035887696 0.0141576 0.0051776473 0.08622228 0.1071794
0.07629083 0.060916856 0.11842979 -0.0017699902 0.07800002 -0.103133164 -0.14515616 -0.034188896
-0.029214324 -0.06211409 -0.05536344 0.008037234 -0.03846288 -0.0104606105 -0.04554317 0.064692535
0.04487879 -0.093579926 -0.11671961 -0.03276134 0.10444359 0.16338438 0.18001902 0.15268354
-0.01924225 -0.1188654 0.047068737 -0.000908295 0.0759732 -0.058110077 -0.121826634 0.060192715
-0.006164133 -0.029733581 0.13143376 0.08503628 0.15880808 0.15994005 -0.027918307 0.17838386
0.11307521 -0.12541309 0.0023138216 0.060757454 0.067012325 -0.033380434 -0.015153023 -0.04275429
0.029123966 -0.11348305 -0.011010362 -0.0863614 -0.08897833 0.09021 -0.09517853 0.047446158
0.04999968 -0.1059182 -0.06980925 -0.063884065 0.17772566 0.06827295 0.1030337 -0.02673099
-0.09771853 0.11349761 0.07809861 0.11400846 0.022280715 0.010388754 0.015340276 -0.093492895
-0.0018675207 0.14546067 0.029007036 0.03434259 -0.13578942 0.09267692 -0.02102371 -0.017261568
-0.026723243 0.058909047 0.08880608 0.07564435 -0.028278058 0.02592996 0.039723795 0.11355104
0.02379584 -0.14842239 -0.13175987 -0.06555425 -0.004092487 0.09255916 0.028717972 0.097730085
-0.062474493 0.14973667 0.12786815 0.11918034 0.06707589 0.1733269 0.05799319 0.048095923
0.008789392 0.015882732 0.042735077 0.084142424 0.10187418 0.09246019 0.07868999 0.06499448
00000000: 53eb 37bd 87f0 e8bd 5d67 073d 895e 473d
00000010: 0e7d c3bd e175 eebd 8efb 993d 0c1a 4abe
00000020: c452 3a3c 5887 9f3d 4530 7e3d 5c65 e4bc
00000030: 5f06 cabd 54d1 11bd 7569 c7bd 6684 03be
00000040: 3781 3e3d 2bce af3d 58a5 1f3e 0e0f 533e
00000050: 0c55 5fbc e794 f7bd 176c 22bc 3a39 6c3d
00000060: 1527 603d b66a a8bd ca74 4bbd a7ae c7bd
00000070: f458 f8bb ecf5 16bd d4a3 193d ac0e 1f3d
00000080: 1405 ae3a ffe2 10bd 77ad 8dbd 2817 c9bd
00000090: 66d4 2bbd 3947 f53c 5723 b1bc 065e e7bd
000000a0: 72e3 50bd ecd1 a0bd 48fa 0abe c5ec e0bd
000000b0: 14ac 72bd 5d34 89bd 42f2 983d 90d1 23bd
000000c0: e56b b9bc 6e84 a83d 5c43 edbd 0051 083d
000000d0: 1281 443d ea08 133e 0b25 e23d 88df e43c
000000e0: 3056 33bd ad2c c6bd 40ed debc e962 c03d
000000f0: f8ff 293e b6b1 373e 1b61 353d 4475 c93d
00000100: 193d c7bd 6734 3dbd ee8e e83d e68d cbbd
00000110: 2786 0abe 50a5 36bc d0cb d63c a4bb 68bd
00000120: a7c4 113d fa41 373c 7241 e73d a886 b93d
00000130: ce30 6bbd 8682 cabd 9dd5 cabd ca5d 2b3d
00000140: abf0 80bd 6dec aa3d b898 dc3d f9d4 ac3d
00000150: 779b ef3b 18fc e3bc 759c 843d f563 fd3c
00000160: 1483 babc a199 8bbc 3ffc 883d 6a7e c03d
00000170: c508 0cbd a6ab c93d c5f1 cf3d bef3 8dbd
00000180: d8ab b13d e400 a93d c71e 9a3d a02e 52bd
00000190: 98fa c43d 2f5c 97bd 9426 b73d fa8c 203c
000001a0: 3757 683d 4cbd 8a3d 50f3 ed3c a9dd d93c
000001b0: 8547 7ebd 2391 aabd e600 adbd 81cd f53b
000001c0: b696 51bd d960 c4bc dec8 d23c 60e3 d1bd
000001d0: 02cc 123e 187b b53c 1cfb c13d c472 a7bd
000001e0: fe79 103d dbdd 8cbd 2f14 c73d 30ae 9e3d
000001f0: 6ecd 62bd bf96 49be f718 3abe 9672 12be
00000200: 045a 8b3c 9e0e afbd 8468 3e3d 6242 e2bd
00000210: 654e d9bc d64a 13bc 9c0c a7bd e6a9 093d
00000220: e1de 0cbe 8419 d5bd be82 1dbe 9031 6b3b
00000230: 47f5 673c 41a9 a93b 4f95 b03d e080 db3d
00000240: 5e3e 9c3d f483 793d 518b f23d 04ff e7ba
00000250: 79be 9f3d 7b37 d3bd d1a3 14be a809 0cbd
00000260: e152 efbc 586b 7ebd c6c4 62bd 9aae 033c
00000270: 418b 1dbd fb62 2bbc 7a8b 3abd 857d 843d
00000280: d2d2 373d d5a6 bfbd b10a efbd c130 06bd
00000290: 85e6 d53d 3c4e 273e e856 383e 1359 1c3e
000002a0: eca1 9dbc b46f f3bd 26cb 403d a51a 6eba
000002b0: d697 9b3d d504 6ebd 3e80 f9bd a38c 763d
000002c0: 7ffc c9bb d793 f3bc 9296 063e 8027 ae3d
000002d0: 969e 223e 53c7 233e efb4 e4bc 42aa 363e
000002e0: fa93 e73d 4a6c 00be 7ca3 173b cfdc 783d
000002f0: c23d 893d ecb9 08bd 6344 78bc 1f1f 2fbd
00000300: 6295 ee3c cd69 e8bd ce64 34bc 3fde b0bd
00000310: 453a b6bd 05c0 b83d f6ec c2bd e756 423d
00000320: 77cc 4c3d a4eb d8bd 27f8 8ebd a6d5 82bd
00000330: b7fd 353e b0d2 8b3d 5503 d33d f3fa dabc
00000340: a720 c8bd 6f71 e83d 2af2 9f3d 447d e93d
00000350: 0c86 b63c 9835 2a3c c855 7b3c 3479 bfbd
00000360: 99c7 f4ba a4f3 143e 2aa0 ed3c d1aa 0c3d
00000370: 620c 0bbe 66cd bd3d ea39 acbc 2268 8dbc
00000380: b4ea dabc 9d4a 713d f6df b53d 6deb 9a3d
00000390: 63a7 e7bc 116b d43c 6bb5 223d 738d e83d
000003a0: 7eef c23c 0afc 17be 0fec 06be 4e41 86bd
000003b0: 451a 86bb a88f bd3d f441 eb3c b626 c83d
000003c0: 41e5 7fbd 9254 193e deef 023e d214 f43d
000003d0: 165f 893d 9b7c 313e 448a 6d3d 3b00 453d
000003e0: 6201 103c 811c 823c fa0a 2f3d dd52 ac3d
000003f0: 69a3 d03d c55b bd3d 3828 a13d d31b 853d

bias f4 [16]
0.054170705 -0.038066015 0.05659551 0.17991477 -0.010357764 -0.07656395 0.11683638 -0.008153156
-0.10402931 -0.0066688736 0.039370034 0.13769667 0.07463172 0.14543986 -0.099535435 -0.08006554
00000000: 1ae2 5d3d 1ceb 1bbd b2d0 673d 943b 383e
00000010: 9cb3 29bc 8fcd 9cbd e947 ef3d d194 05bc
00000020: 520d d5bd 9186 dabb 7942 213d 5b00 0d3e
00000030: 84d8 983d 30ee 143e 3cd9 cbbd 67f9 a3bd

weight f4 [4, 16, 1, 1]
0.19524457 0.1680188 0.06628325 0.10643788 -0.28587046 0.22348863 -0.076609895 0.2831573
0.1559995 0.05563343 0.13398771 -0.083597496 -0.115904786 -0.23268884 -0.22660136 -0.08142828
-0.20790674 -0.2684482 0.07622023 -0.38086218 -0.0032659085 0.10715614 -0.28751543 -0.22868913
0.10462242 -0.22517128 0.1595191 -0.10415078 -0.20786116 -0.30162868 0.009270605 0.07562057
0.14066987 0.07344762 0.020730179 0.16790739 -0.120166026 0.13081469 0.16419502 -0.049033597
0.053265188 -0.084596105 0.12128126 0.16860573 0.06179632 -0.20397572 0.103976645 -0.30005008
-0.030670926 0.12325282 0.01668016 -0.26447544 0.0069876667 -0.14772484 -0.25038597 0.106225975
-0.011577828 -0.26975003 -0.079306245 -0.22612064 -0.19691151 -0.21274184 0.03487056 0.007635778
00000000: 31ee 473e 1f0d 2c3e 83bf 873d 1afc d93d
00000010: 9d5d 92be 34da 643e a6e5 9cbd fef9 903e
00000020: 55be 1f3e e1df 633d 1334 093e 2a35 abbd
00000030: 7d5f edbd fc45 6ebe 300a 68be dfc3 a6bd
00000040: 81e5 54be 0b72 89be 5a19 9c3d 5e00 c3be
00000050: da08 56bb ae74 db3d 3935 93be 7c2d 6abe
00000060: 4844 d63d 4d93 66be fa58 233e 014d d5bd
00000070: 8ed9 54be 136f 9abe bce3 173c f5de 9a3d
00000080: c30b 103e b56b 963d 56d2 a93c eaef 2b3e
00000090: 9b19 f6bd 49f4 053e bd22 283e 74d7 48bd
000000a0: 992c 5a3d b940 adbd 4f62 f83d fba6 2c3e
000000b0: 231e 7d3d 03df 50be b5f1 d43d 2aa0 99be
000000c0: 9841 fbbc f96b fc3d d5a4 883c 5369 87be
000000d0: ccf8 e43b 2e45 17be 9732 80be 018d d93d
000000e0: eeb0 3dbc ad1c 8abe 506b a2bd 2b8c 67be
000000f0: 2ca3 49be ffd8 59be 6fd4 0e3d 8c35 fa3b

bias f4 [4]
-0.07703506 -0.005381327 -0.16401128 -0.12477133
00000000: 8fc4 9dbd d855 b0bb 93f2 27be 1c88 ffbd
